assignment_1/code/mnist-classifier/best-conv.pth (torch, 83269 bytes, 24 tensors)

layers.0.weight f4 [8, 1, 3, 3]
0	0xbeca9eec	-0.39574373
1	0x3b858d7e	0.004075705
2	0xbe7bb05a	-0.24578992
3	0xbc4c851a	-0.012482906
4	0xbeafe374	-0.3435322
5	0x3d766c46	0.06016185
6	0xbe1851bd	-0.1487493
7	0xbe30e213	-0.1727374
8	0xbed6d9b4	-0.4196297
9	0xbeb30745	-0.34966484
10	0xbd8b1b98	-0.067923725
11	0x3e868f63	0.2628127
12	0xbf191425	-0.59796363
13	0xbe32286b	-0.1739823
14	0x3ee2bf0a	0.44286376
15	0xbefab7ec	-0.48968446
16	0x3e2428dc	0.16031212
17	0x3f2af8a7	0.66785663
18	0x3e81cf4e	0.25353473
19	0x3eaf6b87	0.34261724
20	0xbe7f1af7	-0.2491263
21	0xbe809fd6	-0.25121945
22	0xbdf1267c	-0.117749184
23	0xbec425e3	-0.38310155
24	0xbdc343db	-0.09534427
25	0xbe3a6134	-0.18201143
26	0xbdb2f6a8	-0.08738452
27	0x3e883d4a	0.2660926
28	0x3f2d3fe8	0.6767564
29	0x3f36189f	0.7113132
30	0xbd806aae	-0.062703475
31	0xbdaf7d17	-0.08568781
32	0xbee5237d	-0.44753638
33	0xbe8784dd	-0.26468554
34	0xbf14af2e	-0.58079803
35	0xbe840740	-0.2578678
36	0x3e861125	0.26184955
37	0xbf3d50d5	-0.73951465
38	0xbefb8c86	-0.49130648
39	0x3f52c1ba	0.82326853
40	0x3ea6c244	0.32570088
41	0x3df13c26	0.117790505
42	0xbdb43191	-0.087985165
43	0x3ece341f	0.4027414
44	0x3e352350	0.17689252
45	0x3eac0628	0.33598447
46	0x3e7ef39b	0.24897616
47	0xbed4d803	-0.41571054
48	0x3ee6a200	0.4504547
49	0x3d32ec2b	0.04368226
50	0xbef626f7	-0.48076603
51	0x3f2485e0	0.6426678
52	0xbe4828a1	-0.19546749
53	0xbec20109	-0.37891415
54	0xbf03800a	-0.5136725
55	0xbe2b8660	-0.16750479
56	0x3f03ff42	0.5156137
57	0x3d3b2a0b	0.045694392
58	0x3f1c3102	0.6101228
59	0x3e0292a0	0.12751245
60	0x3eedeab1	0.46468118
61	0x3dfa36e4	0.12217501
62	0xbf07df83	-0.53075427
63	0xbeefe7fa	-0.46856672
64	0xbe03f3c2	-0.12885955
65	0xbeb954a3	-0.36197385
66	0xbe63e388	-0.22254765
67	0xbe0f9c2d	-0.1402442
68	0x3e886479	0.26639155
69	0x3f211443	0.6292154
70	0x3ea9e090	0.3317914
71	0x3e0e9e91	0.13927676

layers.0.bias f4 [8]
0	0xbd627103	-0.055283558
1	0xbe250e16	-0.16118655
2	0xbecd66f4	-0.4011761
3	0xbdb5cc17	-0.08876818
4	0x3db0c393	0.08631053
5	0xbe0a213a	-0.13489237
6	0xbeaebd39	-0.3412874
7	0x3c9fb0ca	0.01949348

layers.3.weight f4 [16, 8, 3, 3]
0	0x3cc80ce3	0.024420207
1	0x3c8eb9fd	0.01742267
2	0xbc6fc071	-0.014633284
3	0xbe0c8c1e	-0.13725325
4	0xbcf4bd50	-0.029875427
5	0xbdcb1292	-0.099156514
6	0x3de3eb83	0.11128905
7	0x3e0d186c	0.13778847
8	0x3df95264	0.12173918
9	0xbe7d32e3	-0.24726443
10	0x3e6a4df8	0.22881305
11	0x3e6361b7	0.22205244
12	0xbca37c80	-0.019956827
13	0x3e8faaa2	0.2805987
14	0x3d60becb	0.054869454
15	0xbe95a421	-0.29226783
16	0xbe95a1fc	-0.29225147
17	0xbef25322	-0.4732905
18	0xbd833668	-0.064068615
19	0xbe0284da	-0.12745991
20	0xbdb06ed4	-0.08614889
21	0xbe518f9a	-0.20464936
22	0xbe9b7177	-0.30360004
23	0xbdb00e6f	-0.08596503
24	0x3d47fa75	0.04882284
25	0x3d5d98c5	0.05410077
26	0x3e9c18d8	0.30487704
27	0xbe6355fa	-0.22200766
28	0xbe797c87	-0.2436391
29	0xbd6d28a8	-0.0579001
30	0xbd53f7c6	-0.051749967
31	0xbe2c64de	-0.16835353
32	0x3da7a0cc	0.081849664
33	0x3e6ecd58	0.2332052
34	0x3e8f4e0e	0.27989239
35	0x3f0598b2	0.5218612
36	0xbd42fbfb	-0.04760359
37	0xbd481cd2	-0.04885561
38	0x3da06669	0.07832033
39	0xbce94ab9	-0.028478013
40	0x3da9774c	0.08274707
41	0x3e8f14e5	0.2794563
42	0x3df005b2	0.11719836
43	0x3e46369e	0.19356772
44	0x3e1b2351	0.15150191
45	0x3d9e2d61	0.07723499
46	0x3e3410d9	0.17584552
47	0x3d8624ea	0.065500095
48	0x3df843a5	0.12122277
49	0x3e631cd7	0.2217897
50	0xbe819a1f	-0.25312898
51	0xbe4de2d8	-0.20106065
52	0xbebe1943	-0.37128648
53	0xbe92ec4a	-0.286959
54	0xbcefdbd6	-0.02927963
55	0xbe892f4b	-0.26793894
56	0xbd7576a2	-0.05992759
57	0xbee789c0	-0.45222282
58	0xbeb2466e	-0.3481936
59	0x3da1feaa	0.079099014
60	0xbf14fafd	-0.5819548
61	0xbe974981	-0.29548267
62	0xbda8735d	-0.08225129
63	0xbce5e513	-0.028063333
64	0x3e024871	0.12722947
65	0x3e88e3e0	0.26736355
66	0xbdaa33ef	-0.08310687
67	0x3e1b7a23	0.1518331
68	0x3e566f2a	0.20940843
69	0xbe4a8fae	-0.19781372
70	0xbe4c4c3c	-0.19950956
71	0x3dfd4318	0.12366313
72	0x3dfd2877	0.12361234
73	0x3d90fb6a	0.070792034
74	0xbe0653d5	-0.13117917
75	0x3d977fcc	0.07397422
76	0x3e0ef376	0.1396006
77	0xbe918b62	-0.28426653
78	0xbd85a7a5	-0.06526116
79	0xbda99dd9	-0.0828206
80	0xbefcc339	-0.49367693
81	0x3c905883	0.01762033
82	0x3c231dd8	0.009955846
83	0x3d44f546	0.048085473
84	0xbe034c4e	-0.12822077
85	0x3db50816	0.08839433
86	0x3dd75beb	0.10515579
87	0x3e038a64	0.1284576
88	0x3e8a5654	0.27018988
89	0xbc1b897f	-0.009493231
90	0x3d0e1842	0.034691103
91	0x3d5e043a	0.05420325
92	0x3d41fe22	0.0473615
93	0x3d457c87	0.04821446
94	0x3d75acb6	0.059979163
95	0xbe923e68	-0.28563237
96	0x3e5713e4	0.21003681
97	0xbdc82419	-0.0977251
98	0xbedf59db	-0.43623242
99	0xbd4b6cc4	-0.049664274
100	0xbe1d45d3	-0.15358667
101	0xbe920545	-0.28519645
102	0x3e8778dd	0.264594
103	0xbac91e66	-0.0015344142
104	0xbe184fd9	-0.1487421
105	0xbe135778	-0.14388835
106	0xbe4c90b1	-0.1997707
107	0xbd6a3d34	-0.057187274
108	0x3e0d545d	0.13801713
109	0xbdad9b90	-0.08476937
110	0x3d9d00e2	0.07666184
111	0x3dc53726	0.09629659
112	0x3d8b52b7	0.06802886
113	0x3ddb00e9	0.10693533
114	0xbcf32ad6	-0.029683512
115	0xbd97d631	-0.07413901
116	0xbe1752eb	-0.14777724
117	0xbe3bcaa6	-0.18339023
118	0x3e1d7462	0.15376428
119	0xbe81079e	-0.25201124
120	0xbf0498e0	-0.5179577
121	0xbdcf061c	-0.10108587
122	0xbed7b6bd	-0.42131606
123	0xbe280386	-0.16407594
124	0xbd31df75	-0.043425996
125	0xbd4b1e4a	-0.049589433
126	0xbef1d251	-0.4723077
127	0xbf01018b	-0.5039298
128	0xbd459e19	-0.048246477
129	0xbdffe921	-0.12495638
130	0x3dce3454	0.100685745
131	0x3e8406b0	0.25786352
132	0x3f01b74c	0.50670314
133	0x3eab5fa0	0.33471394
134	0x3dbcb822	0.09214808
135	0xbdc156be	-0.09440373
136	0xbe6790ea	-0.22613874
137	0x3e0ac710	0.13552499
138	0x3dc74773	0.09730425
139	0x3e136ed1	0.14397742
140	0x3e6c00b8	0.23047149
141	0x3bd13bce	0.006385303
142	0x3e406ec4	0.18792254
143	0xbe1522fa	-0.14564124
144	0xbe7ad8dc	-0.24496788
145	0xbd933db7	-0.071895055
146	0x3b0396a0	0.0020078793
147	0xbe8112a7	-0.25209543
148	0xbddf4bb4	-0.10903111
149	0x3d814882	0.06312658
150	0xbe8c79dd	-0.27436724
151	0xbd8ce72d	-0.06880031
152	0xbe0e7ad8	-0.13914049
153	0x3dded30e	0.10880099
154	0x3c75f6bd	0.01501244
155	0xbeb62cb5	-0.35580984
156	0xbe75e434	-0.24012834
157	0xbea8c35f	-0.32961556
158	0xbeac7914	-0.33686125
159	0x3e1554c8	0.14583123
160	0xbb26c82e	-0.0025448906
161	0xbd187e9e	-0.037230127
162	0x3c11ff90	0.0089110285
163	0xbd391d1c	-0.045193776
164	0x3e4ae4bf	0.19813822
165	0xbd533f10	-0.051573813
166	0x3ddfd886	0.109299704
167	0x3dbf7c12	0.093498364
168	0xbeed673b	-0.4636782
169	0xbd528d65	-0.051404376
170	0x3cae5c50	0.021284252
171	0x3e571920	0.21005678
172	0x3e938d1e	0.288186
173	0x3e2c6e2a	0.16838899
174	0x3e1cf692	0.15328434
175	0x3e3e4e60	0.18584585
176	0xbe40a6dd	-0.18813653
177	0xbe544036	-0.2072762
178	0xbdc7a7a1	-0.097487696
179	0x3dce66a8	0.10078174
180	0xbd655bee	-0.055995874
181	0x3da1ad39	0.07894368
182	0xbec08e79	-0.37608698
183	0x3ddeb32c	0.10874018
184	0xbe4643bd	-0.19361778
185	0xbe5f0987	-0.21780978
186	0x3eb830a4	0.3597461
187	0x3dbe1681	0.09281636
188	0xbda991df	-0.08279776
189	0x3e5765e3	0.2103496
190	0x3d7f1ece	0.062285237
191	0x3e014a46	0.1262599
192	0x3e16323e	0.14667603
193	0xbe318453	-0.17335634
194	0xbde18d3e	-0.11013268
195	0x3e21689a	0.15762559
196	0x3ddbf4e0	0.107400656
197	0x3da52609	0.08063895
198	0x3e9c42ba	0.30519658
199	0x3d6b37f0	0.057426393
200	0x3e84f375	0.25966993
201	0x3d329ba1	0.04360545
202	0xbee72ad0	-0.4514985
203	0xbe98ead0	-0.29866648
204	0xbe4ea223	-0.20179038
205	0xbe482fcc	-0.19549483
206	0xbe75a42d	-0.2398841
207	0x3d9a40f8	0.07531923
208	0xbcf967db	-0.03044503
209	0xbd76de37	-0.060270514
210	0xbdfcab18	-0.12337321
211	0xbd215493	-0.039387297
212	0xbcdac04f	-0.026703028
213	0x3d9dcd4b	0.07705172
214	0x3e2b551d	0.16731687
215	0xbcc502a1	-0.024049105
216	0xbda91100	-0.082551956
217	0xbcbfe508	-0.02342464
218	0x3e30baad	0.17258711
219	0xbc8678cb	-0.01641502
220	0x3d24ce31	0.040235702
221	0x3caaf962	0.020870868
222	0x3d22933d	0.0396912
223	0x3d834bd0	0.064109445
224	0xbdbd2ffb	-0.09237667
225	0xbe8fbc7f	-0.280735
226	0xbe1fff15	-0.1562465
227	0xbe65fa78	-0.22458827
228	0xbc98c245	-0.018647322
229	0xbe6e9907	-0.23300563
230	0xbef86f42	-0.48522383
231	0xbeabb16e	-0.33533806
232	0xbcdf2308	-0.027238384
233	0xbea639d8	-0.32466006
234	0xbe123b9a	-0.14280549
235	0x3d8be8e9	0.068315335
236	0x3e55eba5	0.20890673
237	0x3e0024b6	0.12514004
238	0x3c4a4d5c	0.0123475455
239	0xbceabf1c	-0.028655581
240	0x3d7246e1	0.059149627
241	0xbbfbb209	-0.0076811356
242	0x3db78a99	0.08961982
243	0x3e57aa39	0.21061029
244	0x3e731166	0.23737106
245	0x3e3c9fd8	0.1842035
246	0x3ea4d1d2	0.3219133
247	0x3e102f42	0.14080527
248	0xbe28625f	-0.16443776
249	0xbe037091	-0.1283591
250	0x3cbcb16c	0.02303382
251	0xbec19c01	-0.37814334
252	0xbdb39009	-0.08767707
253	0x3d8d5a06	0.06901936
254	0xbe8f096f	-0.27936885
255	0xbcf474f2	-0.02984092

layers.3.bias f4 [16]
0	0x3b734ef9	0.0037125929
1	0x3d355a5e	0.044275634
2	0xbe39cf92	-0.18145588
3	0x3dae816c	0.08520779
4	0xbd213c78	-0.039364308
5	0xbdb042da	-0.08606501
6	0x3db3f43f	0.087868206
7	0xbdb165c3	-0.08661988
8	0x3dddaa29	0.10823471
9	0xbd3b5c0d	-0.045742083
10	0xbe252294	-0.16126472
11	0x3cbd278e	0.02309015
12	0x3ddc4ea4	0.10757187
13	0xbdf8344d	-0.121193506
14	0xbd8e5123	-0.06949069
15	0x3d380f10	0.04493624

layers.6.weight f4 [32, 16, 3, 3]
0	0x3e324bcc	0.17411727
1	0x3d2ac1b2	0.04168863
2	0xbe0d22d8	-0.13782823
3	0xbdabb1ac	-0.083834976
4	0xbe9da00c	-0.3078617
5	0xbe3c1683	-0.18367963
6	0xbcebf82a	-0.028804857
7	0x3d23adaf	0.03996056
8	0x3f2031f3	0.62576216
9	0xbc2ce499	-0.010552549
10	0x3c832959	0.016010927
11	0xbd4873d8	-0.048938602
12	0xbd03ed48	-0.03220871
13	0x3d611126	0.054947995
14	0xbe7f12a1	-0.2490945
15	0x3e8acae8	0.2710793
16	0x3d2baef3	0.04191489
17	0xbd653e43	-0.05596758
18	0x3e653288	0.22382557
19	0x3e2d8559	0.169454
20	0x3d2025ef	0.039098676
21	0x3cc4d815	0.024028817
22	0xbe7b98d4	-0.24570018
23	0xbc9d7bdd	-0.019224102
24	0x3e2cd7cb	0.16879193
25	0xbdd75b03	-0.10515406
26	0x3e39630e	0.18104193
27	0x3d509931	0.050927345
28	0xbd4f36f4	-0.050589517
29	0x3d462058	0.04837069
30	0xbd1edc86	-0.038784526
31	0x3de68251	0.11255325
32	0xbe45b386	-0.19306764
33	0x3e4c43bf	0.19947718
34	0x3dee85d9	0.11646623
35	0x3dfb8816	0.12281816
36	0xbcd179fb	-0.02557086
37	0xbdbecdca	-0.09316595
38	0xbed164c0	-0.4089718
39	0x3df0ad59	0.117518134
40	0xbd9e3a58	-0.07725972
41	0xbe2a9ccc	-0.16661376
42	0x3e229c48	0.15879929
43	0x3d90e71f	0.07075333
44	0x3ecfdd2c	0.40598428
45	0x3c8fdeb1	0.017562242
46	0x3ca75a19	0.020428704
47	0xbd8d2211	-0.06891263
48	0xbbf2a4d3	-0.0074049025
49	0xbe0bdf8b	-0.13659494
50	0xbe2c6489	-0.16835226
51	0xbe4ef947	-0.2021228
52	0xbd84232d	-0.06452022
53	0xbe8428f9	-0.2581251
54	0x3d6d1390	0.057879984
55	0x3d851b6a	0.064993694
56	0xbd8f52e0	-0.06998229
57	0xbe81bf20	-0.2534113
58	0xbe75a9af	-0.2399051
59	0x3d9f4841	0.07777453
60	0x3cc86ac8	0.02446498
61	0x3e442efb	0.19158547
62	0x3ebc3172	0.36756474
63	0x3e466a9b	0.19376604
64	0x3d42c8b0	0.04755467
65	0x3e0a75d7	0.13521515
66	0x3e648eb5	0.22320063
67	0x3e065e25	0.13121851
68	0xbdbe9205	-0.09305195
69	0x3d43c76a	0.047797598
70	0xbcf673ba	-0.03008448
71	0xbdecfc0c	-0.115715116
72	0x3e25b2d0	0.16181493
73	0x3d8511ec	0.06497559
74	0x3e82732e	0.254785
75	0xbdf053a7	-0.117347054
76	0xbdf68a0d	-0.1203805
77	0x3d49306f	0.049118455
78	0xbd908265	-0.07056121
79	0x3ba8901e	0.005144133
80	0xbe9ab3f1	-0.3021541
81	0x3e87f4a9	0.26553848
82	0xbcda2001	-0.026626589
83	0x3e2efbc3	0.17088227
84	0x3e451778	0.19247234
85	0xbe22a55e	-0.15883395
86	0xbd27b043	-0.04093958
87	0xbd06a3bc	-0.032870993
88	0xbe3696d2	-0.17830971
89	0xbe171c09	-0.14756788
90	0x3e61732f	0.22016595
91	0x3e05e798	0.13076627
92	0x3d070f66	0.03297367
93	0x3c896b4c	0.016774796
94	0xbd5180fa	-0.051148392
95	0xbdc53781	-0.09629727
96	0xbd885dc6	-0.06658511
97	0xba1fa8ff	-0.0006090551
98	0xbe16caa8	-0.14725745
99	0x3d557cf4	0.052121118
100	0x3cb860a4	0.02250702
101	0x3dc11386	0.09427552
102	0x3d21b111	0.039475504
103	0xbd32d4ce	-0.043659978
104	0xbbd04bce	-0.006356693
105	0x3d79821d	0.0609151
106	0xbd03ec0f	-0.032207545
107	0xbda1c372	-0.07898606
108	0xbe21f4e7	-0.15816079
109	0xbdbd971f	-0.0925734
110	0xbcd35432	-0.025796983
111	0xbe64331c	-0.22285122
112	0x3dba3ca0	0.090935946
113	0xbd6100ae	-0.05493229
114	0xbe743a2e	-0.23850319
115	0x3df7ccfe	0.12099646
116	0xbe2b67da	-0.16738835
117	0x3d031fc5	0.03201272
118	0x3d7d09c4	0.06177689
119	0x3d3ef361	0.046618823
120	0xbc6a1d85	-0.014289265
121	0x3d3f31fb	0.046678524
122	0x3d825b7c	0.063651055
123	0x3dbe4e0b	0.09292229
124	0xbc48f42b	-0.012265245
125	0x3d9c57b7	0.07633918
126	0x3d1b76eb	0.037955206
127	0x3b8606d1	0.004090168
128	0x3dcbc8ee	0.09950434
129	0x3d0472fd	0.032336224
130	0xbd093823	-0.0335008
131	0x3e1ee3f1	0.1551664
132	0x3d92b2eb	0.07163032
133	0x3dae5210	0.08511746
134	0xbcbe4770	-0.023227423
135	0x3e284d69	0.1643578
136	0xbd150246	-0.03637912
137	0xbe13f9f8	-0.14450824
138	0xbc4f3776	-0.0126475
139	0x3cea3241	0.028588416
140	0xbdb93ad8	-0.09044427
141	0x3ced4846	0.028965127
142	0xbcd827cc	-0.026386164
143	0x3c9b70b2	0.018974636
144	0x3d3169c7	0.043313768
145	0xbe25c404	-0.16188055
146	0x3ce0ae91	0.02742699
147	0x3e2d2af3	0.16910915
148	0x3e28e090	0.16491914
149	0x3dbfb59d	0.09360812
150	0x3dce0b56	0.10060756
151	0x3d4f3753	0.05058987
152	0xbe840168	-0.25782323
153	0xbd1ca89a	-0.03824673
154	0xbd30f6de	-0.04320418
155	0xbbc00349	-0.0058597666
156	0xbd435c05	-0.04769518
157	0x3d091633	0.033468436
158	0xbd9dee33	-0.077114485
159	0x3d8b611c	0.068056315
160	0x3d6f4972	0.058419652
161	0x3e0dbdc3	0.1384192
162	0xbe9be653	-0.3044916
163	0xbf072401	-0.5278931
164	0xbf019c39	-0.50629
165	0xbe27ae92	-0.16375187
166	0x3dacbb23	0.08434131
167	0x3cd1b5f5	0.02559946
168	0x3d87171c	0.06596205
169	0x3b167599	0.0022958277
170	0xbdaa8448	-0.08326012
171	0x3e071ee0	0.13195372
172	0xbbef3634	-0.0073001627
173	0xbe68b1a6	-0.22724018
174	0xbe3b8617	-0.1831287
175	0x3c1d7b6b	0.009611945
176	0xbd413369	-0.04716817
177	0x3da0931b	0.07840558
178	0xbc181dee	-0.00928448
179	0xbdf7d0c5	-0.121003665
180	0xbdc4254e	-0.09577428
181	0x3d6558f6	0.055993043
182	0x3dbb54bd	0.09147022
183	0x3e84b0c2	0.25916106
184	0x3e51f60f	0.2050402
185	0x3dc1cf3b	0.09463354
186	0x3df89b63	0.12139013
187	0xbd86db07	-0.06584745
188	0xbeb2d0bc	-0.34924877
189	0x3bfaac51	0.0076499362
190	0x3e33d3df	0.17561291
191	0x3d76546e	0.060139112
192	0xbde8a31a	-0.11359234
193	0xbe724020	-0.23657274
194	0xbdec98cd	-0.11552582
195	0x3d1637e6	0.036674403
196	0x3dd4d8b0	0.10392892
197	0x3e541ba9	0.20713677
198	0xbe699a8e	-0.22812864
199	0xbe0653e7	-0.13117944
200	0xbd73608a	-0.05941824
201	0x3e18282f	0.14859079
202	0xbd05fd48	-0.03271225
203	0xbd6f9fc8	-0.05850199
204	0xbd042a0a	-0.032266654
205	0xbe2dbe3f	-0.16967104
206	0xbad0eae7	-0.0015939147
207	0xbdbb0bb5	-0.09133092
208	0xbd60dda3	-0.05489887
209	0xbe8b5dfc	-0.27220142
210	0xbdee3441	-0.116310604
211	0x3b1c2217	0.002382403
212	0xbd5134d3	-0.051075768
213	0x3c93b1f1	0.018029185
214	0x3dfbd70c	0.12296876
215	0xbe487339	-0.19575204
216	0xbec47961	-0.38373855
217	0x3c84c28f	0.016206054
218	0xbd670cc4	-0.05640866
219	0x3d7edc5a	0.062221862
220	0x3d22f1b5	0.03978129
221	0x3d7b6d7a	0.0613837
222	0xbe11e467	-0.14247285
223	0xbdd748ff	-0.1051197
224	0x3e042829	0.12905945
225	0xbe928592	-0.2861753
226	0xbe72be81	-0.23705484
227	0xbe6dea63	-0.23233943
228	0x3d9f7b45	0.07787184
229	0x3b30efc6	0.0026998385
230	0x3e997a7a	0.29976255
231	0x3cb0b3ef	0.021570174
232	0xbd8a622a	-0.067570046
233	0x3c96dcee	0.018415894
234	0xbe88a72f	-0.2669005
235	0xbe6a4f93	-0.22881918
236	0xbe90fa26	-0.28315848
237	0xbcfec75f	-0.031100927
238	0xbe19c12c	-0.15015095
239	0x3d3c6c79	0.046001885
240	0xbd798044	-0.06091334
241	0x3e284b4a	0.1643497
242	0x3da89716	0.08231942
243	0xbef44787	-0.4771082
244	0xbe1c8507	-0.15285121
245	0xbe44bd35	-0.19212802
246	0xbe2855cd	-0.1643898
247	0x3de4d638	0.111736715
248	0x3e11c7ea	0.14236417
249	0xbca2923b	-0.019845119
250	0xbe0886db	-0.13332693
251	0xbdc110b3	-0.09427013
252	0x3deb2b43	0.11482861
253	0x3df8b80a	0.12144478
254	0xbcdd7bb4	-0.027036525
255	0xbbea6d49	-0.007154141

layers.6.bias f4 [32]
0	0xbb348224	-0.002754339
1	0x3bfd84f4	0.0077367965
2	0xbe21506a	-0.15753332
3	0x3d89befd	0.06725881
4	0xbd2c0f95	-0.042007048
5	0x3d12653a	0.03574107
6	0x3ca468f0	0.02006957
7	0xbe0a9098	-0.1353172
8	0x3d8bbab3	0.068227194
9	0xbe29f332	-0.16596678
10	0x3c1c9fae	0.009559555
11	0xbdc0a33f	-0.09406137
12	0xbe3c080c	-0.18362445
13	0x3db32cb8	0.08748764
14	0xbd856007	-0.065124564
15	0xbd9293a6	-0.07157068
16	0x3ca47d54	0.020079292
17	0x3b75f954	0.0037532644
18	0xbd0d3361	-0.034472827
19	0xbd060283	-0.03271724
20	0xbdb2243d	-0.08698318
21	0x3d8c4c95	0.06850544
22	0x3da05813	0.07829299
23	0xbd1c7ce9	-0.03820506
24	0x3dbefadb	0.09325191
25	0xbcb188c6	-0.021671664
26	0x3d7f9293	0.062395643
27	0x3d9c63b7	0.076362066
28	0xbe235f1d	-0.15954252
29	0xbe0035c9	-0.12520517
30	0xbda5b334	-0.08090821
31	0x3d1fcba7	0.039012577

classifier.0.weight f4 [10, 32]
0	0xbdbb416d	-0.09143338
1	0x3e8d6a89	0.27620342
2	0xbdb80c38	-0.089867055
3	0x3d7662d7	0.060152855
4	0xbe32fa00	-0.1747818
5	0xbbc5ddb9	-0.0060383943
6	0xbe0ab1c8	-0.1354438
7	0xbe8bfe96	-0.2734267
8	0x3dcfbce8	0.10143453
9	0xbdea4bee	-0.11440264
10	0x3e4aa566	0.19789657
11	0xbf198c53	-0.5997974
12	0xbe51bb01	-0.20481493
13	0xbe00b5a7	-0.12569295
14	0xbeb7666c	-0.3582033
15	0x3e4475cd	0.19185562
16	0xbd5a326e	-0.05327075
17	0x3ea9af20	0.33141422
18	0x3d9e6c29	0.07735474
19	0x3e138b18	0.14408529
20	0xbe574fe0	-0.21026564
21	0x3e9ecddf	0.31016442
22	0x3d3316db	0.04372297
23	0x3c5be70f	0.013421788
24	0xbdf5666b	-0.11982425
25	0x3d10be4f	0.035337742
26	0x3bf54caa	0.0074859457
27	0x3eafb9b2	0.34321362
28	0xbeb13c43	-0.3461629
29	0xbe70474a	-0.23464695
30	0x3e8de8b8	0.27716613
31	0x3e4d58ab	0.20053355
32	0x3edd6790	0.43243074
33	0xbced58fd	-0.028973097
34	0xbed3e9d8	-0.41389346
35	0x3d9ab17c	0.07553384
36	0xbea50cb1	-0.32236245
37	0x3e24adb6	0.1608189
38	0x3e9102a4	0.28322327
39	0xbe004e95	-0.12529977
40	0xbd75d0bc	-0.060013518
41	0x3e8507e6	0.2598259
42	0xbebb6528	-0.36600614
43	0xbda5a08a	-0.08087261
44	0xbdb575a7	-0.08860331
45	0xbe8b22e2	-0.2717505
46	0x3cd84837	0.026401622
47	0x3d4169d2	0.04722006
48	0x3e924434	0.2856766
49	0xbea44dbd	-0.3209056
50	0xbddc2403	-0.10749056
51	0xbea5c1d8	-0.32374454
52	0x3d55c4ad	0.052189518
53	0xbed78ff7	-0.42102024
54	0x3dbdabc4	0.09261277
55	0x3e889fb0	0.26684332
56	0xbe3f4c20	-0.18681383
57	0xbe45fdf9	-0.19335164
58	0x3e4486e7	0.19192086
59	0xbebca95e	-0.36847967
60	0xbe22c991	-0.15897204
61	0xbd8b7bcf	-0.06810724
62	0xbe0894d0	-0.13338017
63	0xbdeba030	-0.11505163
64	0x3e89e7b2	0.26934582
65	0x3e03f2b2	0.1288555
66	0xbea079ef	-0.31343028
67	0x3e548278	0.20752895
68	0x3e1b12c0	0.15143871
69	0x3e2a28b3	0.16617088
70	0x3e033180	0.12811852
71	0x3e798783	0.243681
72	0x3eaf3107	0.34217092
73	0x3e86d791	0.2633634
74	0xbcd3f280	-0.025872469
75	0xbea4d902	-0.32196814
76	0x3e77694c	0.24161261
77	0xbdd37617	-0.10325258
78	0x3d8e0476	0.069344446
79	0xbe59f52d	-0.21284933
80	0xbec4b5cb	-0.38419947
81	0xbdc488ea	-0.09596427
82	0x3d6cc0d6	0.05780109
83	0xbd841a8e	-0.064503774
84	0xbf00275c	-0.5006006
85	0x3e0580e3	0.13037448
86	0x3ebcf7a3	0.36907682
87	0x3d8ec16b	0.06970485
88	0x3e7dd42e	0.24787971
89	0xbde063a4	-0.10956505
90	0xbe9937a5	-0.29925266
91	0xbe363ad8	-0.17795885
92	0x3c358943	0.011080089
93	0xbe57b44c	-0.21064872
94	0x3dc72e61	0.09725643
95	0x3e97367e	0.29533762
96	0xbe6684a5	-0.22511537
97	0xbe273808	-0.16329968
98	0xbe37eff3	-0.17962627
99	0xbda1db08	-0.07903105
100	0xbcb1e117	-0.021713777
101	0xbe90b4fe	-0.28263086
102	0x3e020e82	0.12700847
103	0x3e2d7023	0.16937308
104	0x3db7ff46	0.089842364
105	0xbe0c7325	-0.13715799
106	0xbe4aa684	-0.19790083
107	0xbd827269	-0.06369478
108	0x3e7efc7f	0.24901007
109	0xbdd9c794	-0.1063377
110	0x3f0819ae	0.53164184
111	0xbe6a37fd	-0.2287292
112	0xbdf07791	-0.117415555
113	0x3e78826c	0.24268502
114	0x3f13175e	0.5745753
115	0x3d42fd44	0.047604814
116	0x3ef3167e	0.47478098
117	0x3d16933e	0.036761515
118	0xbca7da29	-0.020489769
119	0xbd07e1f5	-0.033174474
120	0x3e18d8e6	0.1492649
121	0x3f063488	0.52423906
122	0xbe6065a9	-0.2191378
123	0xbe48b168	-0.19598925
124	0xbed01e4c	-0.40648115
125	0xbd8e5932	-0.069506064
126	0xbeab8a7b	-0.3350409
127	0xbe17c5f6	-0.1482161
128	0xbcc52b29	-0.024068432
129	0x3e64accc	0.22331542
130	0x3e6a7203	0.22895055
131	0xbe9a5362	-0.3014174
132	0xbe58d125	-0.21173532
133	0xbe19a641	-0.15004827
134	0xbe0002f5	-0.12501128
135	0xbdd59d2e	-0.1043037
136	0xbda4e21c	-0.080509394
137	0x3d9d15c9	0.07670171
138	0xbe4e57b3	-0.20150642
139	0x3ec0489d	0.375554
140	0xbe5339ea	-0.20627561
141	0xbcbf7cf8	-0.02337502
142	0x3da45e3f	0.080257885
143	0x3db59588	0.088664114
144	0x3d8b4ec0	0.0680213
145	0xbebc1d31	-0.3674102
146	0xbe9c23cd	-0.30496064
147	0xbeba0dae	-0.36338562
148	0xbe70c752	-0.23513535
149	0x3eba20e3	0.36353216
150	0xbe9116fd	-0.2833785
151	0x3ea8b013	0.32946834
152	0x3d47681c	0.04868327
153	0xbe3215e0	-0.17391157
154	0xbe66272f	-0.22475885
155	0x3e8cb1ed	0.27479497
156	0x3ebeebfc	0.37289417
157	0xbe27ba85	-0.16379745
158	0x3e9d4417	0.3071601
159	0xbeb8945f	-0.36050698
160	0xbd144d69	-0.036206637
161	0xbde574ed	-0.112039424
162	0x3e761b3d	0.24033828
163	0xbde5e9fc	-0.112262696
164	0x3e8c5885	0.27411285
165	0xbe87fb94	-0.26559126
166	0x3e72920f	0.2368853
167	0x3ca83347	0.020532263
168	0xbe97a575	-0.2961842
169	0x3ddfef99	0.109343715
170	0x3c92ff48	0.017943993
171	0x3d7bb4ac	0.0614516
172	0xbf0cdd0f	-0.5502481
173	0x3e4852e6	0.19562873
174	0x3db3b66d	0.08775029
175	0x3e6e7d3a	0.23289958
176	0xbe651a92	-0.22373417
177	0xbd931759	-0.071821876
178	0x3e65e024	0.22448784
179	0x3eef007f	0.46680066
180	0x3f029775	0.51012355
181	0xbe119aab	-0.14219157
182	0xbeb27d95	-0.34861436
183	0xbeb4e749	-0.35332707
184	0x3bebd970	0.0071975514
185	0xbd16003f	-0.03662133
186	0x3e68e8f9	0.22745122
187	0xbd14308b	-0.036179107
188	0xbeeea697	-0.46611473
189	0x3be4253b	0.006962446
190	0xbea897ae	-0.32928222
191	0xbd046b5d	-0.032328952
192	0x3b792796	0.003801798
193	0xbea4e49d	-0.32205668
194	0xbdb8ffcd	-0.09033165
195	0xb93c2865	-0.00017944125
196	0x3e40b0a0	0.18817377
197	0x3eed422a	0.46339542
198	0xbd3ed89c	-0.046593294
199	0xbe1ef5c8	-0.15523446
200	0x3cad5362	0.021157924
201	0xbd0e3d24	-0.034726277
202	0x3ef57a29	0.47944763
203	0x3acf67d5	0.0015823791
204	0xbe2cb319	-0.16865195
205	0xbe77fd59	-0.24217738
206	0xbe70dd67	-0.23521958
207	0xbdc5b431	-0.096535094
208	0xbe4f5293	-0.20246343
209	0xbe1f234f	-0.15540813
210	0x3e00334f	0.12519573
211	0x3e159e36	0.14611134
212	0x3de2d264	0.11075285
213	0x3de518e5	0.11186389
214	0xbe064973	-0.13113956
215	0xbf29f004	-0.6638186
216	0x3e120e3b	0.14263241
217	0x3d9f157a	0.07767768
218	0x3e3d30bf	0.18475626
219	0xbe3a8ac1	-0.18216993
220	0xbe8b7197	-0.272351
221	0x3e0f005a	0.13964978
222	0x3e6eb5cd	0.23311539
223	0xbecd921d	-0.40150538
224	0x3dbf6c85	0.0934687
225	0x3eb9c92f	0.36286303
226	0xbe3ba4c3	-0.1832457
227	0xbd8b0638	-0.067882955
228	0xbdb90502	-0.09034158
229	0xbe87b13a	-0.265024
230	0xbe08f643	-0.13375191
231	0x3e18a8e3	0.14908175
232	0xbdf9b628	-0.12192947
233	0x3e1e0cd8	0.15434587
234	0xbeb62d31	-0.35581353
235	0x3e18b906	0.14914331
236	0x3ec4cb83	0.38436517
237	0xbed0e408	-0.40798974
238	0xbe5a8470	-0.21339583
239	0x3cc7517b	0.024330845
240	0xbe1bfc34	-0.15232927
241	0xbd136c1e	-0.03599178
242	0xbe6f781e	-0.23385665
243	0xbe8f2ad0	-0.2796235
244	0xbd898b24	-0.06715992
245	0xbe788af5	-0.24271758
246	0xbeed5f75	-0.4636189
247	0x3e026f51	0.12737776
248	0xbe8bfb04	-0.27339947
249	0x3e92eb14	0.28694975
250	0xbd86a705	-0.06574825
251	0xbe98554c	-0.29752576
252	0x3efcb373	0.4935566
253	0x3d65ea67	0.056131747
254	0xbda92ac7	-0.08260112
255	0x3e8e266c	0.2776369

classifier.0.bias f4 [10]
0	0x3c798815	0.015230198
1	0x3d03b91d	0.03215896
2	0x3de38e90	0.11111176
3	0x3d740817	0.059578028
4	0xbe19be1e	-0.1501393
5	0x3c725e2a	0.014792958
6	0xbdf85800	-0.1212616
7	0xbdf19fba	-0.117980435
8	0xbd43bc14	-0.047786787
9	0xbd80302f	-0.0625919

exp_avg f4 [8, 1, 3, 3]
0	0x3b251631	0.002519023
1	0xb9d5de31	-0.0004079207
2	0xb92a0218	-0.00016213243
3	0x3b176021	0.0023098069
4	0xba9dd221	-0.0012040773
5	0x3a51f479	0.00080091465
6	0x3aeb544f	0.0017954203
7	0xbb549269	-0.00324359
8	0xba05c1cc	-0.00051024253
9	0x3b4489ae	0.002998929
10	0x3aa2b443	0.0012413341
11	0xbbcdce52	-0.006280699
12	0x3ab489e4	0.0013774005
13	0xbbc42c33	-0.0059867143
14	0xbc0659db	-0.008200134
15	0x396a37a5	0.00022336708
16	0xbc200577	-0.009766928
17	0xbbfd5040	-0.007730514
18	0x3b71fd4c	0.0036924658
19	0x3a4d2923	0.0007826259
20	0xbb551f63	-0.0032519929
21	0x3bb4a0cb	0.005512332
22	0x3b2730a0	0.002551116
23	0xbaf1b981	-0.0018442125
24	0x3bc24d3e	0.005929618
25	0x3a257cab	0.00063128275
26	0xbaa27666	-0.0012394905
27	0x3ac67021	0.0015139618
28	0xba9976e5	-0.0011708407
29	0xba410870	-0.0007363623
30	0x3b1557f1	0.0022788013
31	0x3b4de9c7	0.003141986
32	0x39dd3325	0.0004219051
33	0xbaf3a586	-0.0018588759
34	0x3aa073d4	0.0012241551
35	0x38a6e036	7.9572594e-05
36	0x398bb54d	0.00026647226
37	0xbb372768	-0.0027947072
38	0xbb08cd89	-0.0020874462
39	0xbb1ff962	-0.0024410118
40	0xbbd3401c	-0.0064468514
41	0xba683638	-0.0008858177
42	0xb6ba9f45	-5.5617734e-06
43	0xbb88e569	-0.0041777384
44	0xbb0f5556	-0.0021870933
45	0xba8fb415	-0.0010963703
46	0xba908ba0	-0.001102794
47	0x3ae2dee0	0.0017308854
48	0xbb341b1f	-0.0027481986
49	0x3a8dc592	0.0010816327
50	0x3bb7b26a	0.0056059854
51	0xbaa8b025	-0.0012869878
52	0x3b81404f	0.0039444338
53	0x3b7e0cb4	0.0038764896
54	0xbbf56987	-0.0074893865
55	0xba091ef1	-0.0005230746
56	0x39ab37c8	0.00032657222
57	0xbb803912	-0.0039130533
58	0x3b1766c0	0.0023102015
59	0xbb144c27	-0.0022628398
60	0xbb4c8516	-0.0031207255
61	0x3aa3d89f	0.0012500471
62	0xbb137c3d	-0.0022504472
63	0x3a5d2d5d	0.00084372406
64	0xba5ece70	-0.00084993895
65	0x3afb6a37	0.0019181435
66	0x39b9a86a	0.00035411428
67	0x3b5be4c2	0.0033553098
68	0x3b45abe6	0.0030162274
69	0x3b7044fd	0.0036662214
70	0x3b79a011	0.0038089792
71	0xba530b13	-0.00080506614

exp_avg_sq f4 [8, 1, 3, 3]
0	0x3b405851	0.0029349516
1	0x3b52a09a	0.0032139183
2	0x3b43a483	0.0029852695
3	0x3b5f6585	0.003408761
4	0x3b89fd26	0.004211086
5	0x3b5b6c26	0.003348121
6	0x3b6b09f8	0.0035864096
7	0x3b6ffd30	0.0036619417
8	0x3b55cbba	0.0032622651
9	0x3b202ea0	0.0024441853
10	0x3ae6405d	0.0017566789
11	0x3ae95ebf	0.0017804726
12	0x3b1efd1f	0.0024259759
13	0x3ac1e7a8	0.001479377
14	0x3b13f1f2	0.002257463
15	0x3b0f913d	0.0021906637
16	0x3ac7e12e	0.0015249604
17	0x3b1805ef	0.0023196896
18	0x3b3e3ab2	0.0029026684
19	0x3aea44d6	0.0017873298
20	0x3af3b4e5	0.001859334
21	0x3b06005c	0.0020446992
22	0x3afebcf7	0.0019434978
23	0x3b2354d1	0.002492238
24	0x3b0cded3	0.0021495118
25	0x3b1c19d3	0.0023819103
26	0x3b1faea2	0.0024365564
27	0x3b0a18c6	0.0021071895
28	0x3b32649a	0.0027220608
29	0x3b37868d	0.0028003782
30	0x3b10e59a	0.002210951
31	0x3ac5f6b0	0.0015103426
32	0x3b110bdc	0.0022132313
33	0x3b36ac74	0.0027873786
34	0x3b4e1ad2	0.0031449092
35	0x3b3a0363	0.0028383366
36	0x3b807527	0.0039202156
37	0x3b14b82d	0.0022692785
38	0x3b473326	0.0030395477
39	0x3b5c507e	0.0033617313
40	0x3b374678	0.0027965587
41	0x3b56d722	0.0032782038
42	0x3b3fa69d	0.0029243596
43	0x3b5bfbf9	0.0033566935
44	0x3b556c72	0.003256586
45	0x3b4707d0	0.0030369647
46	0x3b2527a0	0.002520062
47	0x3b4b867e	0.0031055505
48	0x3b639c85	0.0034730744
49	0x3acd70d3	0.0015673883
50	0x3b8205ec	0.003967991
51	0x3b547284	0.003241689
52	0x3b1fa477	0.0024359503
53	0x3b87861f	0.0041358615
54	0x3b70959d	0.003671027
55	0x3b498538	0.003074957
56	0x3b9bbe13	0.004752883
57	0x3b48e7ac	0.0030655665
58	0x3ba9168e	0.0051601594
59	0x3b7d1b1d	0.0038620897
60	0x3b8d333a	0.004309085
61	0x3b692bce	0.0035579088
62	0x3b3aae77	0.0028485337
63	0x3b0b2569	0.0021232015
64	0x3ae8fe2e	0.0017775947
65	0x3b17d23b	0.0023166079
66	0x3ad193e7	0.0015989513
67	0x3aeb7b76	0.0017965871
68	0x3b0134d3	0.0019715324
69	0x3b0860b0	0.0020809583
70	0x3b0d52ef	0.0021564325
71	0x3ae95fa5	0.0017804994

exp_avg f4 [8]
0	0x3b85a94c	0.0040790197
1	0xba42ab3c	-0.00074260286
2	0x3afdb688	0.0019356767
3	0xbb40a4ec	-0.0029395176
4	0x3b078f79	0.0020684882
5	0xba637e2c	-0.0008678164
6	0x3a2f84db	0.0006695517
7	0x3af5c6d5	0.0018751273

exp_avg_sq f4 [8]
0	0x3b9f1e8f	0.004855938
1	0x3b2b86bf	0.0026172844
2	0x3b458efa	0.0030145035
3	0x3b9f9705	0.004870298
4	0x3bbd4efc	0.005777238
5	0x3ba7c6ce	0.005120135
6	0x3be6069e	0.007019832
7	0x3b544ca1	0.0032394307

exp_avg f4 [16, 8, 3, 3]
0	0xbb88087a	-0.004151401
1	0xbb20baab	-0.0024525325
2	0xbb2a4f1d	-0.0025987097
3	0xbbc61a4a	-0.0060456144
4	0xbba2c383	-0.0049671545
5	0xbb47e029	-0.00304986
6	0xbbd4acc4	-0.006490322
7	0xbbb25269	-0.005441953
8	0xbb8479dd	-0.0040428475
9	0xbb57d5ad	-0.0032933757
10	0xbbbdc1f5	-0.0057909437
11	0xbb987e1a	-0.0046537044
12	0xbb4e185c	-0.0031447625
13	0xbb90abc2	-0.0044150064
14	0xbb933c54	-0.0044932757
15	0xbafa95de	-0.001911815
16	0xbb1d9e42	-0.0024050628
17	0xbb2c1a89	-0.0026260933
18	0xba20be05	-0.0006131831
19	0xba02124a	-0.0004961832
20	0xba8c0cd1	-0.0010684972
21	0xba996c21	-0.0011705199
22	0xba3fdfd3	-0.0007319424
23	0xbac13f83	-0.0014743659
24	0xba8de664	-0.0010826108
25	0xba8860dc	-0.0010404843
26	0xbb0b8d27	-0.002129385
27	0xb9ecb2a6	-0.0004514653
28	0xba136688	-0.00056228833
29	0xbb00b8d1	-0.001964141
30	0xbadc710e	-0.0016818361
31	0xbb3ba432	-0.0028631804
32	0xbb8559bd	-0.0040695355
33	0x3aaddcf9	0.0013264708
34	0xbaa03879	-0.0012223861
35	0xbba6fc99	-0.00509603
36	0x3897ca90	7.237971e-05
37	0xbb50c7e1	-0.0031857418
38	0xbba6803d	-0.005081205
39	0x3aefaaad	0.0018285118
40	0xbad73839	-0.0016419954
41	0xbb5591ea	-0.0032588192
42	0x3afadc2a	0.00191391
43	0x3a120542	0.00055702415
44	0x3a0c1113	0.00053431204
45	0x397800df	0.00023651448
46	0xbb3f9956	-0.0029235682
47	0xbb81b2a8	-0.003958065
48	0x3a640ed3	0.0008699719
49	0xbaf16603	-0.0018417243
50	0xba9e4551	-0.0012075101
51	0x3b04270d	0.0020164878
52	0x38993ba1	7.306715e-05
53	0xbb047585	-0.0020211649
54	0xb8e414ad	-0.000108757384
55	0xbaaf96fd	-0.0013396438
56	0xbb1292b0	-0.0022365265
57	0x3a67b45f	0.0008838828
58	0x3906cb9a	0.00012855083
59	0xbb36f772	-0.0027918485
60	0x3a69c462	0.0008917508
61	0x39c9dbe1	0.0003850153
62	0xbaa3c497	-0.0012494501
63	0x3a01798b	0.0004939071
64	0xbae236ad	-0.0017258726
65	0xbb87a321	-0.0041393195
66	0x3b27573e	0.0025534178
67	0x3ad16420	0.0015975274
68	0xbaeaec1d	-0.001792315
69	0x3a9affb7	0.0011825477
70	0x3ac9263d	0.0015346479
71	0x38c6211f	9.447545e-05
72	0x3a4a7b33	0.00077240466
73	0xb9b808ad	-0.0003510168
74	0x3a7ccad2	0.00096432597
75	0x3998c4a4	0.00029138208
76	0xb83bb8d1	-4.4756398e-05
77	0xb8df7f9e	-0.00010657239
78	0x3a03a729	0.0005022162
79	0x3ae74660	0.0017644875
80	0x3996a2f4	0.0002873164
81	0x3b203560	0.0024445876
82	0x3a248088	0.0006275256
83	0x3adcc88c	0.0016844436
84	0x3a3dfc8d	0.0007247411
85	0x3793fb88	1.7640894e-05
86	0x3a81261b	0.0009853275
87	0xbb80e22d	-0.0039332123
88	0x39186ea0	0.0001453706
89	0x3ae12977	0.0017178495
90	0xba114194	-0.0005541083
91	0xb9660b57	-0.00021938734
92	0x39b5cb59	0.00034674516
93	0xb9eb2c3e	-0.00044855656
94	0xb9b35ea7	-0.00034212062
95	0xb9784d6e	-0.00023679968
96	0x38a5fa12	7.914392e-05
97	0x3a133c3e	0.0005616582
98	0xba15e630	-0.00057181995
99	0xbb82b6a5	-0.003989058
100	0xbb6b91f5	-0.0035945151
101	0xbae6d689	-0.0017611544
102	0xbae7a0cc	-0.0017671823
103	0xba95028a	-0.0011368555
104	0x3a8877e9	0.0010411713
105	0x3a06a6b2	0.0005136534
106	0x3998deb1	0.00029157617
107	0x39d49810	0.00040549086
108	0xbae10825	-0.0017168565
109	0xba8c9da1	-0.001072813
110	0xba8d6640	-0.0010787919
111	0xba9712da	-0.0011526004
112	0x3a482790	0.000763529
113	0xba8e0a36	-0.0010836783
114	0xb838fe19	-4.4105665e-05
115	0xba74d036	-0.0009338887
116	0xba953da9	-0.0011386174
117	0xb9e784ed	-0.0004415879
118	0x3b09bdbe	0.0021017636
119	0xb9c3ce11	-0.0003734683
120	0x36c81cda	5.9638232e-06
121	0x3add5ad1	0.0016888027
122	0xbb1a6cab	-0.0023563306
123	0x398811d5	0.00025953227
124	0xbb072753	-0.0020622804
125	0xba5ff66e	-0.0008543496
126	0xba1c1a54	-0.0005954851
127	0x3a5f5a05	0.0008520189
128	0x3a2e674f	0.00066529674
129	0x391a37f3	0.00014707427
130	0xba80541e	-0.0009790694
131	0x3ae7a9dd	0.0017674525
132	0xba1de7f7	-0.000602364
133	0xbb3d23c8	-0.0028860439
134	0xba15b7e2	-0.00057112996
135	0xb9737a2f	-0.00023219803
136	0xba11d44e	-0.0005562947
137	0x3b15f75b	0.002288303
138	0xba3e9b82	-0.0007271097
139	0xbadbfb19	-0.0016783207
140	0x3aa50aea	0.0012591754
141	0xbaf3b8ae	-0.0018594468
142	0xbafeec23	-0.0019449036
143	0xbb034734	-0.0020031454
144	0x3ab4d2f5	0.001379578
145	0x3b112966	0.002214992
146	0x3b0653af	0.0020496657
147	0x3b14d066	0.0022707223
148	0x3b29398c	0.0025821654
149	0x3b1cca06	0.0023924126
150	0x3b037fd5	0.0020065208
151	0x3b18a8a1	0.002329387
152	0x3b37a77e	0.0028023417
153	0x3b1f5ce4	0.0024316842
154	0xba08de57	-0.00052211195
155	0x3a3364d4	0.00068433327
156	0x3aba6839	0.0014221735
157	0x390edacf	0.00013623688
158	0x3a3e1d24	0.0007252267
159	0xb9838157	-0.00025082633
160	0x372652fc	9.913692e-06
161	0x382b2d5d	4.0811825e-05
162	0x3a3db252	0.00072363496
163	0x3a3dbc8f	0.0007237875
164	0x3a2d6177	0.00066139497
165	0x3a84ad82	0.001012251
166	0x3a91d11f	0.0011124945
167	0x3a4a67e8	0.0007721172
168	0x3a4f224c	0.0007901534
169	0x3a4794ed	0.0007613439
170	0x3a3b584c	0.0007146641
171	0x3b3fc9fb	0.0029264677
172	0x3b2def17	0.0026540214
173	0x3b45c44f	0.0030176823
174	0x3afae6a4	0.0019142223
175	0x3a9e5d96	0.0012082334
176	0x3a7b86e2	0.0009594989
177	0x3a0c61f5	0.0005355173
178	0x3926ccc4	0.00015907275
179	0x39548c60	0.00020270189
180	0x3a343479	0.0006874274
181	0x3a89dbb4	0.0010517747
182	0x39d760fc	0.00041080255
183	0xb8f219a7	-0.00011544237
184	0x3a3915bd	0.0007060429
185	0xba19268f	-0.00058422325
186	0x3a8cca74	0.0010741488
187	0xb9c2d10d	-0.00037158318
188	0xb9bb5319	-0.00035729332
189	0x3ad5f462	0.0016323442
190	0x3abf4a68	0.0014594318
191	0x37a0218b	1.9089106e-05
192	0x3ad297f0	0.001606701
193	0x3ad19b57	0.001599173
194	0xb946002c	-0.00018882815
195	0x3ab54c9b	0.0013832034
196	0x39caf8ff	0.0003871396
197	0xb8e23bb5	-0.00010787641
198	0x3aa459b0	0.0012538936
199	0x3a39f59a	0.00070937874
200	0x39902ce9	0.0002749928
201	0x3a0a7eac	0.0005283158
202	0xb9ff9d86	-0.00048754754
203	0x392378a9	0.00015589841
204	0x3a3ddae9	0.0007242398
205	0x39d1e34e	0.00040032942
206	0x39b91d55	0.00035307804
207	0x3aa40060	0.0012512319
208	0x39bdef60	0.00036227237
209	0xb79d7603	-1.8770812e-05
210	0x3a2087cf	0.00061237527
211	0xb7c326ab	-2.3263818e-05
212	0x39c34f2f	0.00037252295
213	0x3a1a0308	0.00058750855
214	0x3a6a6144	0.00089408853
215	0x37acaace	2.0583535e-05
216	0xbb357de3	-0.0027693443
217	0xbb18c879	-0.002331285
218	0xbb1af5ac	-0.0023644967
219	0xbb2c7ab6	-0.0026318259
220	0xbb1d4c2a	-0.0024001696
221	0xbb1c6ea2	-0.0023869653
222	0xbb2866d5	-0.0025696058
223	0xbb1ea278	-0.0024205726
224	0xbb1c874f	-0.002388436
225	0x39a1213b	0.00030733072
226	0xb98bb86b	-0.00026649548
227	0xb9ec5599	-0.00045077203
228	0xb8fcbc16	-0.0001205133
229	0xb703c78b	-7.854668e-06
230	0xb9ec76a2	-0.00045101816
231	0xb9f1fc8c	-0.00046155264
232	0xb9bbf83c	-0.00035852368
233	0xbac0c5eb	-0.0014707422
234	0xba28be97	-0.00064370915
235	0xb9f3e7d2	-0.0004652129
236	0xb9dfa9e2	-0.00042660447
237	0xb9ac36c7	-0.0003284721
238	0xb927fab7	-0.0001601976
239	0xba051348	-0.00050764205
240	0xba4456ec	-0.0007489759
241	0xba29d0dc	-0.0006477961
242	0xba1439d6	-0.000565437
243	0xb9da736d	-0.000416662
244	0x38ed9998	0.0001132965
245	0xba09435a	-0.00052361714
246	0x3a6bdb6f	0.0008997237
247	0x3a84f3ee	0.0010143497
248	0xb9a77135	-0.00031937068
249	0x393705d9	0.00017454418
250	0xb97c4fc0	-0.00024062302
251	0xb809eed7	-3.2885782e-05
252	0x371dbd90	9.402065e-06
253	0x39272ac3	0.00015942291
254	0xb87b0cfb	-5.9855152e-05
255	0x39acf3f3	0.00032988153

exp_avg_sq f4 [16, 8, 3, 3]
0	0x3a9d1d20	0.0011986829
1	0x3a9f4c14	0.001215341
2	0x3a8902e1	0.0010453128
3	0x3a900610	0.0010988135
4	0x3a7e52ba	0.0009701658
5	0x3a2807da	0.00064098614
6	0x3aa2f59f	0.001243282
7	0x3a9057d3	0.0011012502
8	0x3a4a78d4	0.0007723693
9	0x3a1e2733	0.0006033063
10	0x3ab4f024	0.0013804478
11	0x3abf994b	0.0014617828
12	0x3a45881b	0.0007535235
13	0x3adc57ea	0.0016810868
14	0x3ab1b3c7	0.0013557606
15	0x3a2f533d	0.00066881237
16	0x3ab8fa34	0.0014112652
17	0x3aa2308b	0.0012374086
18	0x38cff577	9.9162506e-05
19	0x38cf6072	9.8884935e-05
20	0x38b3e2c5	8.577624e-05
21	0x38c9ad84	9.616747e-05
22	0x38cb0732	9.6811345e-05
23	0x38efc94b	0.00011433902
24	0x39289e18	0.00016080623
25	0x3956cd08	0.0002048501
26	0x3992677b	0.0002792439
27	0x39a03815	0.00030559362
28	0x39920680	0.00027852133
29	0x39b9ebf2	0.00035461743
30	0x3a2f591b	0.0006688998
31	0x3a7e944a	0.0009711428
32	0x3aa49178	0.001255556
33	0x3aa43889	0.0012529056
34	0x3b020490	0.0019839145
35	0x3b20a01e	0.00245095
36	0x3a47bfce	0.00076198287
37	0x3a6eedaa	0.0009114394
38	0x3aa1d624	0.0012347144
39	0x3a71a17a	0.00092174823
40	0x3aa3c318	0.0012494056
41	0x3af1ee1b	0.0018457802
42	0x39ffd432	0.00048795488
43	0x3a2fc56c	0.00067051384
44	0x3a8ce3c7	0.0010749035
45	0x3a25a81f	0.00063193025
46	0x3a1f790d	0.00060834066
47	0x3a3e3566	0.0007255882
48	0x39d08031	0.00039768362
49	0x39d7ff19	0.00041198058
50	0x3a56f9a2	0.00082006503
51	0x39b91fb4	0.0003530957
52	0x39a9493d	0.0003228876
53	0x3a4c7771	0.00077997806
54	0x394b0e56	0.00019364929
55	0x394a3b5b	0.00019286333
56	0x3a009882	0.0004905538
57	0x39617b66	0.00021503642
58	0x39c1b316	0.00036945258
59	0x3a306412	0.0006728779
60	0x39654fb8	0.0002186884
61	0x39a3b23c	0.00031222578
62	0x39d74503	0.00041059413
63	0x3a261aa7	0.0006336369
64	0x3a7812a2	0.0009463226
65	0x3ab5d80d	0.0013873592
66	0x3a2720a0	0.0006375406
67	0x3a81d5eb	0.0009905671
68	0x3aab1fde	0.0013055762
69	0x399a91b8	0.00029481738
70	0x39c773be	0.00038042472
71	0x39fad601	0.0004784316
72	0x3a361541	0.0006945916
73	0x3a31932f	0.0006773946
74	0x3a1b80b7	0.0005931961
75	0x3a374278	0.00069908006
76	0x3a265b94	0.00063460437
77	0x39aa9da6	0.00032542384
78	0x3a20f5c1	0.0006140136
79	0x39d30824	0.0004025112
80	0x3916d265	0.00014383493
81	0x395c0c26	0.0002098536
82	0x3a1e0e28	0.0006029331
83	0x3a8d5e62	0.0010785575
84	0x39fea5d2	0.000485702
85	0x3a8f2998	0.001092243
86	0x3a93a561	0.0011264497
87	0x3a649b94	0.0008720693
88	0x3a9efe7c	0.0012130286
89	0x3a6bc888	0.000899442
90	0x387f16de	6.0818034e-05
91	0x3861dc2b	5.3849228e-05
92	0x38326cd3	4.2539858e-05
93	0x38503734	4.9642476e-05
94	0x382c178f	4.1029936e-05
95	0x37b99689	2.2123817e-05
96	0x383f244b	4.557175e-05
97	0x386b8710	5.6154153e-05
98	0x38d1396e	9.976594e-05
99	0x398f8386	0.00027373078
100	0x3974483e	0.00023296566
101	0x3941ffa6	0.00018501151
102	0x39836d8f	0.00025067895
103	0x39618545	0.00021507319
104	0x396c4725	0.00022533217
105	0x399960ca	0.00029254548
106	0x3a178c20	0.0005781073
107	0x3a6121fc	0.0008588133
108	0x395773f5	0.00020547195
109	0x39998a93	0.0002928568
110	0x39db3f46	0.00041818077
111	0x399f481c	0.0003038057
112	0x3a00c9dc	0.0004912892
113	0x3a2bbfbc	0.0006551703
114	0x39bcb985	0.00035996377
115	0x39e1fee8	0.00043105264
116	0x39fb3d3e	0.0004792008
117	0x38cd1659	9.779324e-05
118	0x39056e9d	0.00012725075
119	0x392d8344	0.00016547466
120	0x3838b285	4.4035278e-05
121	0x383d6f31	4.5164667e-05
122	0x39888c16	0.00026044314
123	0x38811cd8	6.156572e-05
124	0x398772b4	0.00025834667
125	0x3a2f2772	0.0006681598
126	0x37a3f5a2	1.9545496e-05
127	0x37cb0771	2.4202951e-05
128	0x395321ac	0.00020135072
129	0x381f00d6	3.7909333e-05
130	0x395ae31b	0.00020874703
131	0x39f0cf4d	0.00045930818
132	0x3994a09c	0.00028348423
133	0x39ffcd49	0.0004879034
134	0x3a075bba	0.00051635096
135	0x38efbb1b	0.00011431259
136	0x397cebd2	0.00024120443
137	0x3a161bdb	0.00057261967
138	0x39c90634	0.0003834233
139	0x3a2793d4	0.00063925725
140	0x3a5033b6	0.0007942276
141	0x3a0f687a	0.00054705853
142	0x3a2d7f3a	0.00066183845
143	0x39f87d37	0.00047395538
144	0x3963a667	0.00021710397
145	0x39f0eb4d	0.0004595168
146	0x3a2c34d0	0.0006569149
147	0x39b624e3	0.00034741228
148	0x3a380ce5	0.00070209644
149	0x3a4b4451	0.00077540154
150	0x39bb4ae9	0.00035723232
151	0x3a28f498	0.0006445139
152	0x3a3b8c6f	0.000715441
153	0x3a3b0a30	0.0007135002
154	0x38cec6c7	9.8598706e-05
155	0x38336da6	4.2779044e-05
156	0x39dbbac8	0.00041910098
157	0x382ded9a	4.1467698e-05
158	0x38c96f2b	9.6051335e-05
159	0x3a0f1a34	0.00054589217
160	0x38dcb23e	0.00010523618
161	0x393090a0	0.00016838545
162	0x38c304c4	9.299212e-05
163	0x3959a46a	0.00020755982
164	0x39628f0b	0.00021606327
165	0x391b6c49	0.00014822291
166	0x395918c6	0.00020703961
167	0x391c06b6	0.0001487982
168	0x38a90dea	8.06114e-05
169	0x388d4a0e	6.737198e-05
170	0x38524ad7	5.01376e-05
171	0x3a79f81d	0.0009535568
172	0x3aa276a2	0.0012394974
173	0x3a8914bb	0.0010458449
174	0x3a6972bc	0.00089053414
175	0x3a535466	0.00080615876
176	0x39cc5174	0.000389706
177	0x39bed344	0.0003639703
178	0x38f24b90	0.00011553534
179	0x38834022	6.2585124e-05
180	0x3a1febb1	0.00061004894
181	0x39eb7503	0.00044909873
182	0x394a5254	0.00019294891
183	0x3a1eab72	0.0006052769
184	0x39d489cf	0.00040538466
185	0x389ff85d	7.627972e-05
186	0x3a877306	0.0010333962
187	0x3a80abfc	0.000981688
188	0x39d3a2c3	0.00040366323
189	0x3a82b91a	0.0009973377
190	0x3a8badd8	0.0010656668
191	0x39e353ed	0.00043359344
192	0x3aaebe41	0.0013331847
193	0x3a88d3bb	0.0010439077
194	0x3906ef58	0.00012868398
195	0x3a96ebca	0.0011514362
196	0x3a62c131	0.00086500036
197	0x39687ece	0.00022172483
198	0x3a15b0e2	0.00057102565
199	0x39da9b80	0.00041696057
200	0x39003658	0.00012227276
201	0x39c521b0	0.00037599867
202	0x3891ce50	6.9525675e-05
203	0x379c42c8	1.8627747e-05
204	0x390ce689	0.00013437321
205	0x38857124	6.363008e-05
206	0x388caa81	6.707479e-05
207	0x3a0ae7a3	0.0005298799
208	0x3994b2bf	0.00028361936
209	0x38aa8aa5	8.132056e-05
210	0x39714f82	0.0002301317
211	0x393fcd31	0.00018291619
212	0x390a1ba4	0.00013171003
213	0x39b8bd1e	0.00035236118
214	0x39f583fb	0.00046828375
215	0x39dae07d	0.00041747457
216	0x39aff481	0.0003356077
217	0x39cf9c35	0.000395985
218	0x3a078674	0.00051698764
219	0x39f22b73	0.0004619021
220	0x3a13d657	0.0005639544
221	0x3a1da5a9	0.000601376
222	0x3a006b53	0.0004898805
223	0x3a129e8a	0.0005593082
224	0x3a19dce8	0.00058694044
225	0x398d96fd	0.0002700611
226	0x38e010dd	0.000106842934
227	0x3836b888	4.356404e-05
228	0x39147ed4	0.00014161627
229	0x38205b97	3.8232272e-05
230	0x38254a82	3.9408456e-05
231	0x390d1fc7	0.00013458646
232	0x387974a9	5.9474874e-05
233	0x38e142cf	0.0001074128
234	0x38d3e49d	0.000101038466
235	0x3929dc70	0.00016199215
236	0x39331adc	0.00017080776
237	0x3914968c	0.00014170463
238	0x39277442	0.0001596967
239	0x38f3a0dd	0.00011617106
240	0x3899b585	7.329419e-05
241	0x387a0ea6	5.9618287e-05
242	0x3828006a	4.0054707e-05
243	0x3a7ae55d	0.0009570921
244	0x3a8ffc17	0.0010985163
245	0x3a779731	0.00094448315
246	0x3a53725e	0.0008066053
247	0x3a3664d9	0.00069577765
248	0x39b1fc98	0.00033948268
249	0x3969bc09	0.0002229066
250	0x38ab88c3	8.179389e-05
251	0x3763333b	1.3542182e-05
252	0x39ac658a	0.0003288205
253	0x39abc743	0.00032764123
254	0x39678646	0.00022079897
255	0x39397548	0.00017686666

exp_avg f4 [16]
0	0xbb4d9be0	-0.0031373426
1	0x36cd46ba	6.1177097e-06
2	0x3ac54482	0.0015050324
3	0xbac169d4	-0.0014756271
4	0x399e228e	0.00030161854
5	0xb9cd3db4	-0.0003914662
6	0x3b23c5d9	0.0024989753
7	0xba19df61	-0.0005869773
8	0x3a942162	0.0011301453
9	0xbbc0e804	-0.0058870334
10	0xba147ca8	-0.0005664327
11	0x3aae2f41	0.0013289229
12	0xbadcb358	-0.0016838117
13	0x00000004	6e-45
14	0xba2470ce	-0.0006272913
15	0x3a9e7a88	0.001209096

exp_avg_sq f4 [16]
0	0x3a0bc703	0.0005332084
1	0x3984a0ae	0.00025296718
2	0x399ce924	0.00029928342
3	0x396bfba9	0.00022505097
4	0x3a1032f2	0.00055007555
5	0x398f0f08	0.00027286285
6	0x3a0f8115	0.0005474252
7	0x3a18a6c5	0.00058231904
8	0x3a08de1f	0.0005221087
9	0x3a51c485	0.0008002001
10	0x39e2ee99	0.00043283848
11	0x3a13ad0e	0.0005633392
12	0x395bdd64	0.00020967942
13	0x2c095d16	1.9520544e-12
14	0x39c74555	0.00038007894
15	0x39af8508	0.00033477717
