assignment_1/code/mnist-classifier/best-conv.pth (torch, 81245 bytes, 24 tensors)

layers.0.weight f4 [8, 1, 3, 3]
0.004608441 0.5330899 -0.05927108 0.6267627 -0.051419742 -0.66504776 0.52866316 -0.041693
-0.38683745 -0.242884 -0.49318004 -0.078066595 -0.6554739 -0.22994642 0.41159767 0.47499284
0.81224555 0.19100975 0.39716566 0.4903672 0.49192405 -0.14072324 -0.06574553 -0.29879153
-0.13919331 -0.33414665 -0.3670489 0.019825313 -0.2955427 -0.44079673 0.4989448 0.4210757
-0.14887786 -0.36942184 0.23923299 0.40898418 -0.09343076 0.3199241 0.41846815 0.29917926
0.08507581 0.30016854 -0.6135914 -0.41498998 0.00070339 -0.133554 0.44565472 -0.0008885566
-0.33600572 0.2845086 0.14469773 -0.13444985 0.45418012 0.108880796 0.065793365 -0.486422
-0.32233584 0.3747681 -0.26151845 -0.5913171 0.5480614 0.5731834 0.02795864 -0.3160053
0.15174758 -0.37282354 -0.3631676 -0.3869175 -0.3080062 0.05131751 0.053991165 -0.30316743
00000000: 6802 973b 9478 083f 3bc6 72bd 8573 203f
00000010: 829d 52bd 9240 2abf 7856 073f 47c6 2abd
00000020: 8f0f c6be 95b6 78be 1882 fcbe 61e1 9fbd
00000030: 23cd 27bf 1377 6bbe eebc d23e 4332 f33e
00000040: 53ef 4f3f 0f98 433e 4c59 cb3e 6911 fb3e
00000050: 78dd fb3e c119 10be 98a5 86bd 34fb 98be
00000060: b188 0ebe 4515 abbe d5ed bbbe b268 a23c
00000070: 5f51 97be 1cb0 e1be b175 ff3e 3c97 d73e
00000080: 7073 18be dc24 bdbe 7ef9 743e 6066 d13e
00000090: a058 bfbd 17cd a33e 7541 d63e 062e 993e
000000a0: 3a3c ae3d b1af 993e 5314 1dbf 9179 d4be
000000b0: b463 383a 61c2 08be db2c e43e 06ee 68ba
000000c0: f108 acbe 1cab 913e a42b 143e 39ad 09be
000000d0: 4c8a e83e e5fc de3d acbe 863d 4e0c f9be
000000e0: 3409 a5be 9be1 bf3e bfe5 85be 8f60 17bf
000000f0: c04d 0c3f 26bc 123f 8509 e53c 72cb a1be
00000100: b863 1b3e bae2 bebe 1bf1 b9be 0d1a c6be
00000110: fdb2 9dbe 4f32 523d d725 5d3d c338 9bbe

layers.0.bias f4 [8]
0.25595918 -0.12326517 -0.11061613 -0.23312916 -0.17880228 0.09736465 -0.24558319 0.19520739
00000000: 150d 833e 7372 fcbd b68a e2bd 69b9 6ebe
00000010: f217 37be 1e67 c73d 297a 7bbe 72e4 473e

layers.3.weight f4 [16, 8, 3, 3]
-0.028207896 -0.060160514 0.0036287727 -0.14495096 0.028430354 0.22854844 -0.29159316 0.23509881
0.5107892 0.028061029 -0.10770994 -0.26907223 -0.39228275 -0.07356234 -0.08800159 0.22665636
0.29520646 0.15503989 0.07293598 0.13731232 -0.25130063 0.15851107 -0.08990345 -0.25382775
0.23878768 -0.20097078 -0.25546366 0.16484644 0.13119708 0.18455939 0.10999542 0.015469672
-0.0037907993 -0.24721764 -0.39776066 -0.34422338 0.15772921 0.29237166 0.15582493 0.10932666
0.34608978 0.010723997 -0.043072574 0.11398669 -0.26931298 -0.08494343 -0.10717742 0.15700144
-0.3231328 -0.15146385 0.31529212 -0.3719455 0.15308556 0.27807346 0.29101634 0.17234561
0.25026694 0.12425224 0.051644314 0.19014134 -0.22038119 0.029108798 0.22023042 0.08463925
-0.19084136 -0.38300827 -0.053663693 -0.15226507 -0.30331925 0.030605042 -0.051860657 -0.14941618
-0.11235957 -0.061104145 -0.089855865 -0.04031448 0.06850884 -0.014144181 -0.007223244 0.0028774973
-0.002894488 0.0643139 -0.10752755 -0.08654291 -0.041303895 -0.09603547 -0.015688907 -0.068668686
-0.010849873 -0.07189385 -0.05937931 -0.0761776 -0.014020315 -0.08795416 0.05816537 -0.055259965
-0.11077024 0.050439686 0.027518297 -0.014041997 -0.11957111 0.051645212 -0.008413296 -0.11408433
0.033389974 -0.05310145 -0.09552725 -0.15586138 -0.093106106 0.05654249 0.049007766 0.011432854
-0.14108698 -0.0688344 -0.006429398 0.006507604 -0.12578678 0.07084872 -0.059623353 -0.13119185
-0.12484141 -0.045485288 -0.140062 0.0074148616 -0.11688755 0.0628847 0.02666402 -0.086142495
0.039028894 -0.07545956 -0.07253857 0.012782783 0.008555166 -0.012871916 -0.10063768 -0.10258419
0.04299544 0.060942985 0.09820482 -0.0965309 -0.059280682 -0.12074959 -0.060317792 -0.08282002
0.11822068 0.12034905 -0.0007139774 0.2899847 0.13337666 0.013457761 0.19555436 -0.017971177
0.082810156 0.08157304 0.20706008 0.1574068 0.04695633 -0.07668384 0.049779303 -0.34512407
0.114253916 0.49382052 -0.10107957 -0.006991988 0.051151052 -0.2576775 -0.12407568 -0.094061896
-0.48557103 -0.38243148 0.051304344 0.0035585314 -0.12385539 0.2776794 -0.13818984 -0.21385497
-0.041126233 0.27204603 0.3675693 -0.02464906 -0.2601303 0.07021665 -0.08901581 -0.13202988
-0.12120574 -0.2773669 0.13520736 0.04863715 -0.027494881 0.015380082 0.11690231 -0.1523139
0.1298226 -0.08399899 0.08711696 0.04512761 -0.014550759 0.08367118 0.128066 0.04857396
0.16515271 -0.06286973 0.08476183 0.0759886 0.34221545 0.21090709 0.03910769 -0.0329785
-0.021674793 0.122661926 0.1346291 -0.32142872 -0.29231763 -0.17454143 -0.5137694 -0.07823727
0.13688616 0.3437218 0.123719126 0.1698806 0.14288333 -0.23469892 -0.07810039 0.057557356
0.023012789 -0.031022046 -0.017921 -0.13375929 -0.13680997 -0.4030874 -0.47074163 -0.17987715
-0.28108048 -0.39027742 -0.08792491 0.36558014 0.28922987 -0.33457175 -0.07587941 0.014857119
-0.37249985 -0.21278837 -0.14729525 -0.17507094 -0.2747981 0.25718993 -0.27955282 -0.11739029
-0.05478794 -8.765567e-05 0.3261534 0.13211267 0.1327437 0.19753353 0.3474604 0.015124991
00000000: 3f14 e7bc df6a 76bd b4d0 6d3b 066e 14be
00000010: c6e6 e83c 9a08 6a3e b34b 95be bebd 703e
00000020: 15c3 023f 3ee0 e53c 0797 dcbd d6c3 89be
00000030: 49d9 c8be daa7 96bd 2d3a b4bd 9b18 683e
00000040: 4d25 973e c7c2 1e3e 765f 953d 9a9b 0c3e
00000050: 7aaa 80be ba50 223e 4d1f b8bd b6f5 81be
00000060: c284 743e 49cb 4dbe 22cc 82be 81cd 283e
00000070: 8758 063e 23fd 3c3e 4745 e13d 8274 7d3c
00000080: 0f6f 78bb 9f26 7dbe 49a7 cbbe 0c3e b0be
00000090: c483 213e bdb1 953e 9290 1f3e a8e6 df3d
000000a0: ae32 b13e b4b3 2f3c de6c 30bd db71 e93d
000000b0: 64e3 89be d2f6 adbd d67f dbbd fcc4 203e
000000c0: aa71 a5be 5719 1bbe f86d a13e a46f bebe
000000d0: 76c2 1c3e a55f 8e3e 1800 953e 5e7b 303e
000000e0: fd22 803e f577 fe3d fd88 533d 69b4 423e
000000f0: 9bab 61be 9375 ee3c 1584 613e 5857 ad3d
00000100: eb6b 43be a919 c4be 76ce 5bbd 60eb 1bbe
00000110: a94c 9bbe 6db7 fa3c d76b 54bd 8e00 19be
00000120: c61c e6bd 5748 7abd 5a06 b8bd cc20 25bd
00000130: 5d4e 8c3d ffbc 67bc f6b0 ecbb 6594 3c3b
00000140: 73b1 3dbb 02b7 833d 6737 dcbd 693d b1bd
00000150: 462e 29bd 3fae c4bd 0686 80bc 2ba2 8cbd
00000160: aac3 31bc 153d 93bd b837 73bd 0003 9cbd
00000170: 77b5 65bc 5021 b4bd d03e 6e3d 4658 62bd
00000180: 82db e2bd d899 4e3d 0d6e e13c 6710 66bc
00000190: b3e1 f4bd ee89 533d ecd7 09bc 0ca5 e9bd
000001a0: edc3 083d e880 59bd caa3 c3bd 209a 1fbe
000001b0: 6aae bebd 1999 673d 5ebc 483d de50 3b3c
000001c0: 1b79 10be 0df9 8cbd b3ad d2bb bd3d d53b
000001d0: 40ce 00be 2219 913d 9e37 74bd 2857 06be
000001e0: daac ffbd c84e 3abd 6a6c 0fbe 5ef8 f23b
000001f0: bd62 efbd b2c9 803d 816e da3c 7a6b b0bd
00000200: c3dc 1f3d 8b8a 9abd 1a8f 94bd e16e 513c
00000210: f82a 0c3c bbe4 52bc 211b cebd a917 d2bd
00000220: fd1b 303d 5a9f 793d 9c1f c93d feb1 c5bd
00000230: 4dd0 72bd 904b f7bd ca0f 77bd 8b9d a9bd
00000240: af1d f23d 9079 f63d 362a 3bba e078 943e
00000250: e493 083e f17d 5c3c 673f 483e 4a38 93bc
00000260: 5f98 a93d c40f a73d 8f07 543e 402f 213e
00000270: 4855 403d 6b0c 9dbd 62e5 4b3d 1ab4 b0be
00000280: f5fd e93d 0bd6 fc3e ce02 cfbd 0c1d e5bb
00000290: c483 513d 4eee 83be 641b febd 86a3 c0bd
000002a0: c49c f8be 0fce c3be 8124 523d 4036 693b
000002b0: e5a7 fdbd ff2b 8e3e a381 0dbe ccfc 5abe
000002c0: fb73 28bd 9e49 8b3e 0b32 bc3e d3ec c9bc
000002d0: cc2f 85be bfcd 8f3d ec4d b6bd d732 07be
000002e0: b73a f8bd 0903 8ebe cc73 0a3e c037 473d
000002f0: f23c e1bc bdfc 7b3c 7a6a ef3d 2df8 1bbe
00000300: 37f0 043e aa07 acbd 606a b23d bbd7 383d
00000310: 4f66 6ebc cc5b ab3d bc23 033e 7df5 463d
00000320: cb1d 293e d8c1 80bd 9c97 ad3d e99f 9b3d
00000330: dd36 af3e 07f8 573e 632f 203d 7714 07bd
00000340: 568f b1bc 2d36 fb3d 36dc 093e 4e92 a4be
00000350: a8aa 95be fdba 32be 6486 03bf dd3a a0bd
00000360: e32b 0c3e 4efc af3e 7460 fd3d 2ef5 2d3e
00000370: 0250 123e ea54 70be 19f3 9fbd 43c1 6b3d
00000380: 5185 bc3c f221 febc 10cf 92bc 32f8 08be
00000390: ea17 0cbe 7961 cebe 0c05 f1be b731 38be
000003a0: c8e9 8fbe 71d2 c7be fa11 b4bd 522d bb3e
000003b0: f015 943e fd4c abbe aa66 9bbd 466b 733c
000003c0: 4db8 bebe 32e5 59be 91d4 16be cc45 33be
000003d0: 56b2 8cbe 66ae 833e 8c21 8fbe 526a f0bd
000003e0: 5269 60bd c8d3 b7b8 94fd a63e 8b48 073e
000003f0: f7ed 073e 3b46 4a3e 54e6 b13e cfce 773c

layers.3.bias f4 [16]
-0.04740523 -0.048283044 0.013287257 -0.09507886 0.037173484 -0.062002238 -0.025729993 0.09081973
-0.06987819 -0.10199411 0.013146943 -0.07541833 0.12306516 -0.15278594 -0.05173492 -0.012112359
00000000: fd2b 42bd 71c4 45bd ccb2 593c b5b8 c2bd
00000010: 3943 183d 0ff6 7dbd b5c7 d2bc b2ff b93d
00000020: 4c1c 8fbd 4ae2 d0bd 4766 573c ed74 9abd
00000030: 9609 fc3d eb73 1cbe ffe7 53bd ea72 46bc

layers.6.weight f4 [32, 16, 3, 3]
0.16039898 0.15608954 0.015845535 -0.06831095 -0.008686479 -0.01596414 0.24954797 -0.000540121
-0.003949043 -0.07359828 -0.0013476389 -0.03609854 0.082348086 0.060534824 -0.02252985 -0.086258225
0.007561199 0.060318653 -0.035367765 -0.033400983 0.08235812 -0.012928981 -0.053467102 0.11671284
-0.13402551 -0.10809378 -0.22556105 -0.074562415 -0.07123709 0.10555823 0.030179884 -0.029300524
-0.014901171 0.18303218 0.18552412 0.2150331 0.18874349 -0.18415202 -0.20446351 0.24082884
-0.24457353 -0.1567354 -0.07629042 -0.22868674 0.05521413 -0.0708113 0.056946523 -0.24793924
0.19109613 0.17279844 0.15689641 -0.19285165 -0.060797203 0.16151768 0.24483396 0.016273953
-0.14099358 -0.1415393 -0.04936304 -0.013212779 0.0663294 0.11515798 -0.025916398 -0.06839061
0.089475475 0.032229442 -0.12247816 -0.14849927 0.1656129 -0.05209659 -0.042258415 -0.043110702
-0.020219153 -0.0938904 -0.035102755 -0.09487385 0.02972423 0.093693316 -0.0372532 0.17481324
0.1860924 -0.018946638 -0.07658175 -0.1983995 0.13635758 -0.006222283 -0.074429154 -0.13643017
-0.013124655 -0.021214927 0.116044246 -0.008233096 -0.15882245 0.14469454 0.20532638 -0.06152771
-0.0058811107 0.23973827 0.13020568 0.09163628 0.07874709 -0.15146959 -0.033072777 0.14985892
0.29586357 0.053363755 0.065685116 0.21950006 -0.16568285 -0.09975036 -0.26385057 -0.03876865
0.010541741 -0.019732198 -0.2164895 -0.1691028 -0.19895466 0.034189302 -0.08129284 0.043446578
0.041620545 0.08428401 0.0817817 0.082909904 -0.00538456 0.0565615 -0.19132286 -0.032286637
-0.057405747 0.1472886 0.25710502 0.24104235 -0.06763156 0.080677494 0.24858686 0.16558371
0.16748206 -0.15356408 -0.15062922 0.05181285 -0.023279028 0.050298277 -0.2497555 -0.010646902
0.2542251 0.1539827 -0.16258654 0.035920467 -0.01242978 0.024445286 -0.010957581 -0.2487901
-0.082251385 -0.0141301 -0.060321804 0.0144930165 0.07227377 -0.032306243 -0.075144425 -0.05354638
-0.008034061 -0.068991095 -0.008153926 -0.0095637245 -0.013094198 0.2670679 0.06506314 -0.036210854
0.11365338 -0.17372179 -0.04884289 -0.027252251 -0.13084172 0.055906788 -0.07031451 -0.027408544
0.15184987 0.032739524 -0.10747456 -0.14200558 -0.14318842 0.13800275 0.0019899476 -0.26067466
-0.10601581 -0.11611728 -0.1953909 -0.2745799 -0.3107468 -0.008086785 0.011939027 -0.0032182224
-0.19340843 0.010824759 -0.0007449009 -0.039769545 0.0015581042 0.012230638 -0.07697901 -0.00078031205
-0.25569898 0.039446 -0.029901233 -0.04482283 0.21854223 -0.014028942 -0.15038627 -0.014003572
0.050476868 0.0080782 -0.027380453 0.036378685 0.0632611 0.051646 0.0012597849 0.11161831
-0.10665695 -0.10588867 -0.0052550626 0.09214543 0.07277125 0.098379485 0.24529637 0.07000183
-0.14803152 -0.009883648 0.061223485 -0.074372455 -0.14930461 -0.1467521 -0.18528053 -0.074461974
-0.026926287 -0.060016792 -0.23681976 -0.120587155 0.17271645 -0.31356177 -0.11860779 0.17758241
0.27258244 0.35992527 0.2800586 -0.14616725 -0.057046026 -0.23323585 -0.2013947 0.05934399
0.061106328 0.22579348 0.11639565 0.22438434 0.11925799 -0.07599357 -0.0051216306 0.021030908
00000000: a13f 243e f0d5 1f3e 7fce 813c 9de6 8bbd
00000010: bc51 0ebc 3ac7 82bc 8189 7f3e e896 0dba
00000020: f966 81bb b2ba 96bd 42a3 b0ba 10dc 13bd
00000030: 1da6 a83d 5df3 773d 8590 b8bc 27a8 b0bd
00000040: efc3 f73b b110 773d cadd 10bd 78cf 08bd
00000050: 60ab a83d 14d4 53bc 5200 5bbd 2407 ef3d
00000060: fc3d 09be 4660 ddbd 7af9 66be 2eb4 98bd
00000070: c0e4 91bd ea2e d83d ce3b f73c a707 f0bc
00000080: 0b24 74bc ca6c 3b3e 09fa 3d3e a331 5c3e
00000090: f945 413e 5992 3cbe e25e 51be d69b 763e
000000a0: 7c71 7abe 3f7f 20be 273e 9cbd db2c 6abe
000000b0: 3628 623d 8405 91bd c240 693d c9e3 7dbe
000000c0: b4ae 433e 13f2 303e 74a9 203e e77a 45be
000000d0: 7d06 79bd e464 253e c1b5 7a3e f450 853c
000000e0: 9f60 10be aeef 10be e630 4abd 697a 58bc
000000f0: b5d7 873d f2d7 eb3d a04e d4bc 6010 8cbd
00000100: eb3e b73d 0503 043d d4d5 fabd 3110 18be
00000110: 6e96 293e 3c63 55bd 2917 2dbd d994 30bd
00000120: a3a2 a5bc 9c49 c0bd e8c7 0fbd 394d c2bd
00000130: 3a80 f33c 48e2 bf3d d096 18bd 3e02 333e
00000140: 028f 3e3e fb35 9bbc e4d6 9cbd 3d29 4bbe
00000150: 52a1 0b3e 4be4 cbbb 506e 98bd 5ab4 0bbe
00000160: cb08 57bc edca adbc 9ba8 ed3d 1ce4 06bc
00000170: 5aa2 22be ce2a 143e 1441 523e 7b04 7cbd
00000180: 55b6 c0bb f37d 753e a354 053e cdab bb3d
00000190: 2846 a13d d81a 1bbe 5277 07bd 9e74 193e
000001a0: 6e7b 973e f493 5a3d eb85 863d a0c4 603e
000001b0: c4a8 29be eb49 ccbd 6c17 87be e0cb 1ebd
000001c0: 44b7 2c3c 6ba5 a1bc 6caf 5dbe 4929 2dbe
000001d0: c5ba 4bbe 150a 0c3d dc7c a6bd 0af5 313d
000001e0: 4e7a 2a3d 189d ac3d 2a7d a73d abcc a93d
000001f0: f770 b0bb 08ad 673d 24ea 43be fe3e 04bd
00000200: 4a22 6bbd d3d2 163e 45a3 833e ced3 763e
00000210: 6a82 8abd 3e3a a53d 8e8d 7e3e c78e 293e
00000220: 6b80 2b3e e73f 1dbe 8c3e 1abe b639 543d
00000230: a9b3 bebc 9105 4e3d e8bf 7fbe 5870 2ebc
00000240: cb29 823e a4ad 1d3e 167d 26be 5721 133d
00000250: 47a6 4bbc 7b41 c83c 6d87 33bc d5c2 7ebe
00000260: 6a73 a8bd ef81 67bc ff13 77bd 1e74 6d3c
00000270: 4504 943d 8d53 04bd 52e5 99bd 7353 5bbd
00000280: 4ba1 03bc 344b 8dbd 0b98 05bc 2bb1 1cbc
00000290: 0c89 56bc 20bd 883e d33f 853d d551 14bd
000002a0: 1ac3 e83d 20e4 31be 7b0f 48bd 1d40 dfbc
000002b0: 5ffb 05be 84fe 643d 0e01 90bd e287 e0bc
000002c0: 887e 1b3e e119 063d 9f1b dcbd e969 11be
000002d0: fc9f 12be 9850 0d3e c869 023b 2677 85be
000002e0: d11e d9bd e6ce edbd 8d14 48be bd95 8cbe
000002f0: 341a 9fbe 6f7e 04bc e99b 433c d0e8 52bb
00000300: dc0c 46be 545a 313c 7445 43ba 64e5 22bd
00000310: 4d39 cc3a 0463 483c 2ca7 9dbd db8d 4cba
00000320: faea 82be 2192 213d 6ef3 f4bc 2598 37bd
00000330: 89c9 5f3e a6d9 65bc dcfe 19be 3d6f 65bc
00000340: d5c0 4e3d 6d5a 043c f94c e0bc d101 153d
00000350: 098f 813d c28a 533d 5e1f a53a 2498 e43d
00000360: f66e dabd 29dc d8bd a932 acbb beb6 bc3d
00000370: 1809 953d 2f7b c93d f92e 7b3e 1f5d 8f3d
00000380: 9395 17be 06ef 21bc 7ac5 7a3d 9650 98bd
00000390: 4fe3 18be 2f46 16be 2eba 3dbe 857f 98bd
000003a0: 8494 dcbc 2bd4 75bd e180 72be 66f6 f6bd
000003b0: 95dc 303e 2b8b a0be a4e8 f2bd 2ad8 353e
000003c0: ed8f 8b3e 2048 b83e d763 8f3e deac 15be
000003d0: 18a9 69bd 61d5 6ebe 6a3a 4ebe af12 733d
000003e0: a14a 7a3d 6836 673e d860 ee3d 02c5 653e
000003f0: 883d f43d 84a2 9bbd 5ad3 a7bb 0349 ac3c

layers.6.bias f4 [32]
-0.16194479 -0.059612792 0.0068580857 -0.08943086 -0.03888245 0.049939584 -0.13621774 -0.017516255
-0.0060859397 -0.09231671 -0.02163216 -0.012653381 -0.1277169 -0.12358307 -0.22611323 -0.15345658
0.07541084 -0.060528155 0.0080483025 -0.08522747 0.0010148466 -0.03807332 -0.16489168 -0.018517809
0.11027766 -0.12966788 0.004397814 -0.16746584 -0.047056563 -0.08427782 -0.13083929 0.010123965
00000000: dbd4 25be 8b2c 74bd cbb9 e03b 8727 b7bd
00000010: 3443 1fbd 738d 4c3d aa7c 0bbe 407e 8fbc
00000020: 906c c7bb 8b10 bdbd ed35 b1bc 2050 4fbc
00000030: 38c8 02be 1f19 fdbd 3a8a 67be b923 1dbe
00000040: 0071 9a3d 5fec 77bd 07dd 033c bd8b aebd
00000050: 9a04 853a c5f2 1bbd 5dd9 28be a9b2 97bc
00000060: 41d9 e13d a8c7 04be 8a1b 903b 2a7c 2bbe
00000070: 62be 40bd da99 acbd bcfa 05be fdde 253c

classifier.0.weight f4 [10, 32]
-0.21997212 -0.16828354 -0.20083615 -0.29642862 -0.13013856 0.04882174 -0.20337306 0.14696348
-0.17776605 0.51730156 0.049751423 0.06614148 0.38681015 -0.13377488 -0.19926193 -0.41578948
0.09320793 -0.0883517 0.23020999 -0.088310584 0.050954998 0.36663014 0.19705613 -0.40286246
0.089731835 -0.23518628 0.28946143 -0.02125911 -0.35618553 0.1152281 0.14288414 -0.01077464
-0.15772659 -0.026453562 0.09027273 0.16618876 0.2927043 0.18082419 0.057543144 0.02889282
-0.18501621 -0.04960193 0.37185377 -0.24374828 -0.30381617 0.040972568 -0.23981912 0.096159816
0.11011585 -0.19713025 0.021941984 0.07102925 0.36232516 -0.40767902 -0.36728778 -0.2022568
0.20577434 -0.20516701 0.14769451 -0.33203116 0.053712353 -0.26210687 -0.3056809 0.13189034
0.08762414 0.17173861 -0.25262144 0.1424798 0.26156056 0.17578973 0.47004464 0.06865909
-0.27913338 0.13147318 0.08618263 -0.17769073 0.01591925 -0.015987415 -0.030508762 0.12709793
-0.21016791 0.23290953 0.23774222 0.4016999 -0.016377904 -0.13836311 0.32309732 -0.51989186
-0.28557375 -0.19045012 -0.14546429 0.000599764 -0.04558906 -0.08411631 0.3601667 0.010371612
-0.0486224 -0.15750086 -0.043217376 -0.09905807 -0.3432588 0.44881114 0.007912284 0.21398503
0.22908075 -0.09589447 -0.28107327 0.20730036 -0.050542105 0.08569475 -0.011878486 -0.11995208
-0.15508163 0.330187 -0.2065423 0.10865865 -0.21110006 -0.3694468 0.034255825 0.21586455
-0.13724725 -0.20456192 -0.31244433 -0.029811062 0.41876262 -0.32751155 -0.19146197 0.33009273
0.08521336 0.37123743 0.34037745 -0.0377745 0.22934735 -0.36237463 0.107913285 0.12566389
-0.14795232 -0.028840054 -0.20618373 -0.046995062 -0.06805892 0.30473402 0.005802207 0.12911539
0.30724707 -0.5269691 -0.19431385 -0.13193022 0.27044585 -0.108725965 0.29602498 0.19828564
-0.16187818 0.2793621 -0.15668471 -0.36123955 -0.09670172 0.37656435 0.0025410603 -0.19097078
0.113263115 0.18545121 0.019485375 -0.12911198 -0.28308353 0.18903138 -0.2586392 -0.30796528
0.09077986 -0.24997574 0.18141423 0.2616666 0.19388588 -0.17281161 0.36083645 -0.024241006
0.031017678 -0.5761018 -0.28154394 0.15922971 -0.1673721 -0.022403415 -0.19587491 0.16565038
0.10691618 0.16790229 0.010720682 -0.016513417 0.27257398 -0.22293578 -0.03942115 0.1971286
-0.0151756 -0.049199756 0.10629118 0.008618954 -0.044532686 0.066802375 -0.37579238 -0.42589337
0.37229294 -0.15607211 -0.13555396 0.046078175 -0.19685322 -0.4240734 0.08098372 -0.2901742
-0.30018067 -0.12804797 0.2811316 0.15600814 0.32454675 0.19831994 -0.12410173 -0.37003314
0.15890473 -0.056806665 -0.27852568 0.34294102 -0.048703585 0.06037881 -0.06682003 0.03162278
0.3024039 -0.11288672 -0.010506858 0.11094699 0.45081112 -0.32490993 -0.04595236 0.16955347
-0.17040025 0.17205492 0.24632801 -0.3408822 0.10151494 -0.20189402 0.09473713 0.23827928
0.37887695 0.14541945 -0.23255983 -0.1344132 -0.029212777 -0.48535404 -0.041856192 0.29321307
-0.27726334 -0.08391424 0.1022737 -0.0058163605 -0.30721238 0.00311154 -0.14513536 0.15957975
00000000: 5f40 61be 8552 2cbe fea7 4dbe 7ec5 97be
00000010: 0b43 05be 4ef9 473d 0741 50be 987d 163e
00000020: 4e08 36be e06d 043f 26c8 4b3d 2f75 873d
00000030: fb0b c63e 48fc 08be 520b 4cbe 5ce2 d4be
00000040: cde3 be3d bcf1 b4bd 2bbc 6b3e 2edc b4bd
00000050: 30b6 503d f2b6 bb3e 15c9 493e fd43 cebe
00000060: 53c5 b73d acd4 70be 4a34 943e 9627 aebc
00000070: f35d b6be b6fc eb3d 3850 123e 1e88 30bc
00000080: 1483 21be 24b5 d8bc e9e0 b83d 632d 2a3e
00000090: 57dd 953e fa29 393e 5cb2 6b3d a3b0 ec3c
000000a0: e474 3dbe 652b 4bbd 9e63 be3e 2699 79be
000000b0: cb8d 9bbe dad2 273d 2593 75be 70ef c43d
000000c0: 6b84 e13d 83dc 49be adbf b33c c977 913d
000000d0: af82 b93e 4ebb d0be 250d bcbe 681c 4fbe
000000e0: 82b6 523e 4d17 52be 3b3d 173e fdff a9be
000000f0: 7c01 5c3d df32 86be 3582 9cbe 430e 073e
00000100: 4974 b33d 3fdc 2f3e 9957 81be 3ae6 113e
00000110: 44eb 853e 3902 343e b1a9 f03e 239d 8c3d
00000120: 92ea 8ebe e8a0 063e 8580 b03d 8ff4 35be
00000130: 1669 823c 0af8 82bc 83ed f9bc f625 023e
00000140: 4236 57be d67f 6e3e b272 733e 9cab cd3e
00000150: f42a 86bc 0faf 0dbe 036d a53e a217 05bf
00000160: b936 92be 5b05 43be 97f4 14be 7b39 1d3a
00000170: 98bb 3abd 2c45 acbd c567 b83e b2ed 293c
00000180: 4828 47bd e847 21be b404 31bd f5de cabd
00000190: 9ebf afbe 93ca e53e 86a2 013c e41e 5b3e
000001a0: 2594 6a3e 5264 c4bd d6e8 8fbe 8c46 543e
000001b0: 3d05 4fbd bb80 af3d fb9d 42bc 70a9 f5bd
000001c0: b8cd 1ebe 450e a93e d37f 53be 6d88 de3d
000001d0: 9d2a 58be 2228 bdbe d64f 0c3d 990b 5d3e
000001e0: 8b8a 0cbe ae78 51be b4f8 9fbe 5436 f4bc
000001f0: 0e68 d63e 98af a7be 9b0e 44be ea01 a93e
00000200: 5884 ae3d d512 be3e f445 ae3e 6fb9 1abd
00000210: 08da 6a3e 2b89 b9be a401 dd3d 09ae 003e
00000220: d080 17be fa41 ecbc d421 53be e57d 40bd
00000230: 7a62 8bbd 1906 9c3e 7120 be3b d336 043e
00000240: 7d4f 9d3e 72e7 06bf 36fa 46be b718 07be
00000250: e177 8a3e b8ab debd 9690 973e 640b 4b3e
00000260: 65c3 25be 8d08 8f3e f571 20be 64f4 b8be
00000270: 8d0b c6bd 0bcd c03e eb87 263b d88d 43be
00000280: 7ef6 e73d ece6 3d3e cb9f 9f3c ee35 04be
00000290: 53f0 90be 7191 413e 5b6c 84be a0ad 9dbe
000002a0: cbea b93d a4f9 7fbe a7c4 393e 2af9 853e
000002b0: 058a 463e 87f5 30be 8ebf b83e 1395 c6bc
000002c0: c918 fe3c 687b 13bf 8726 90be 1d0d 233e
000002d0: 9763 2bbe 5e87 b7bc 6f93 48be 41a0 293e
000002e0: dff6 da3d 94ee 2b3e cda5 2f3c 2547 87bc
000002f0: d18e 8b3e 4749 64be 1278 21bd 14dc 493e
00000300: 14a3 78bc af85 49bd 31af d93d 8336 0d3c
00000310: e867 36bd afcf 883d dc67 c0be b20e dabe
00000320: 2e9d be3e 5ed1 1fbe a8ce 0abe 78bc 3c3d
00000330: e493 49be 2620 d9be cbda a53d b691 94be
00000340: 48b1 99be 021f 03be 7bf0 8f3e 99c0 1f3e
00000350: fe2a a63e 6214 4b3e 0c29 febd fc74 bdbe
00000360: ecb7 223e 1bae 68bd eb9a 8ebe f795 af3e
00000370: 697d 47bd c54f 773d f1d8 88bd e386 013d
00000380: afd4 9a3e 2731 e7bd f524 2cbc 2d38 e33d
00000390: b7d0 e63e 985a a6be 8b38 3cbd 6d9f 2d3e
000003a0: 677d 2ebe 2a2f 303e 693d 7c3e 1d88 aebe
000003b0: 11e7 cf3d 4ebd 4ebe 8a05 c23d 7cff 733e
000003c0: 29fc c13e d6e8 143e 2a24 6ebe 9da3 09be
000003d0: a24f efbc 5380 f8be 6671 2bbd 0620 963e
000003e0: 76f5 8dbe 3bdb abbd e074 d13d 2b97 bebb
000003f0: f14a 9dbe fbea 4b3b 5d9e 14be e068 233e

classifier.0.bias f4 [10]
0.112964064 0.3225745 -0.0075580035 -0.15006271 -0.065792814 -0.16560462 0.0907264 -0.11145725
0.1705982 0.059867736
00000000: b459 e73d 7c28 a53e 21a9 f7bb 0aaa 19be
00000010: 62be 86bd 4294 29be c3ce b93d b343 e4bd
00000020: 4bb1 2e3e df37 753d

exp_avg f4 [8, 1, 3, 3]
0.0008544173 0.0055266847 0.019455122 -0.009616682 -0.0048163673 0.0072963573 -0.020793028 -0.0288486
-0.0041215895 0.004478983 0.0037678352 0.0053570434 0.007689333 0.0029300041 0.0010745865 0.006809964
0.002075589 -0.00078239193 -0.011301193 -0.0014279473 0.00810455 0.0011270588 -0.0008125599 0.0060323724
-0.004667866 0.004421087 0.0044825897 0.003673078 0.003693625 -0.007593064 0.009229071 0.01116338
-0.005100978 0.006332013 0.014394463 -0.0045395344 -0.0102760885 0.0038994981 0.009035535 -0.006883486
-0.0006232169 0.0070934244 -0.0113042295 -0.003348381 0.010284432 -0.006791835 -0.009066383 -0.0020946714
-0.0029668245 -0.0070747593 -0.0031195467 0.0019207377 -0.00349711 -0.005406845 -0.010309823 0.0018372046
0.011981781 -0.004060866 0.010625051 0.016309654 -0.006027987 0.0060215355 0.008499091 -0.01848398
-0.017666215 -0.014932178 -0.0137807885 -0.014412154 -0.015887193 -0.0134876175 -0.015712263 -0.0137681225
00000000: f9fa 5f3a 3119 b53b 5960 9f3c 4a8f 1dbc
00000010: 9ed2 9dbb 4816 ef3b 2456 aabc e653 ecbc
00000020: 660e 87bb 6fc4 923b c9ed 763b 238a af3b
00000030: cdf6 fb3b 5005 403b 24d9 8c3a 1e26 df3b
00000040: 9b06 083b 6f19 4dba a428 39bc f629 bbba
00000050: f2c8 043c d1b9 933a f901 55ba 35ab c53b
00000060: e6f4 98bb c4de 903b b0e2 923b 06b8 703b
00000070: bf10 723b 3dcf f8bb 8835 173c 9ce6 363c
00000080: 1b26 a7bb c67c cf3b c1d6 6b3c 60c0 94bb
00000090: 0a5d 28bc b98e 7f3b c809 143c de8e e1bb
000000a0: 615f 23ba f56f e83b 6035 39bc 8370 5bbb
000000b0: 0980 283c 0b8e debb 2b8b 14bc c146 09bb
000000c0: 0e6f 42bb 62d3 e7bb 4f71 4cbb 43c1 fb3a
000000d0: c52f 65bb e72b b1bb 88ea 28bc 5bce f03a
000000e0: 3b4f 443c 0311 85bb b214 2e3c d39b 853c
000000f0: 6c86 c5bb 4d50 c53b c53f 0b3c b76b 97bc
00000100: bdb8 90bc 18a6 74bc d1c8 61bc f520 6cbc
00000110: dc25 82bc 2bfb 5cbc 01b7 80bc b193 61bc

exp_avg_sq f4 [8, 1, 3, 3]
0.0032409183 0.003328623 0.0033360422 0.003534248 0.0018115711 0.0037768197 0.003307469 0.0024212014
0.0040520937 0.00202405 0.001932668 0.0021373592 0.0017611611 0.0012428693 0.0017844902 0.0020093936
0.001903854 0.0018343613 0.0025757074 0.0036741474 0.003492987 0.002778193 0.0016766641 0.0020484265
0.003855295 0.0031880403 0.003151249 0.0060651465 0.0035835078 0.0035143665 0.006034723 0.005474874
0.0031520182 0.0040667015 0.005497155 0.0041391775 0.0024273281 0.003377186 0.0040090224 0.0026873853
0.0022265548 0.0034893823 0.0032722836 0.0022067481 0.002513217 0.001893811 0.0019029255 0.0020842922
0.0014055701 0.0025506879 0.0023142372 0.0014227239 0.0025659683 0.0019416618 0.0025690154 0.0017632978
0.002002138 0.00224334 0.001132444 0.0020137895 0.0018353264 0.0016397604 0.0025927133 0.0027878103
0.003089117 0.0033326352 0.0031685135 0.0037598044 0.0032486594 0.002625662 0.0029610584 0.0027412057
00000000: 9665 543b 0725 5a3b 80a1 5a3b d89e 673b
00000010: 3d72 ed3a 8584 773b 1fc2 583b 05ad 1e3b
00000020: 6dc7 843b eda5 043b 9451 fd3a f012 0c3b
00000030: c3d6 e63a c6e7 a23a 8ee5 e93a 08b0 033b
00000040: bd8a f93a f46e f03a 33cd 283b f7c9 703b
00000050: 99ea 643b 5812 363b 83c3 db3a e53e 063b
00000060: 1ea9 7c3b 71ee 503b 2f85 4e3b 23be c63b
00000070: 49d9 6a3b 4951 663b edbe c53b 9266 b33b
00000080: 1792 4e3b f741 853b 7a21 b43b f0a1 873b
00000090: cf13 1f3b c753 5d3b 1e5e 833b d81e 303b
000000a0: 64eb 113b 1fae 643b cf73 563b 179f 103b
000000b0: c9b4 243b c139 f83a 966b f93a 9f98 083b
000000c0: 1b3b b83a 7129 273b 75aa 173b b17a ba3a
000000d0: ce29 283b 5c7f fe3a ed5c 283b 751e e73a
000000e0: 4d36 033b 0005 133b 846e 943a c8f9 033b
000000f0: 568f f03a 3bed d63a 83ea 293b b2b3 363b
00000100: c872 4a3b 5768 5a3b d6a6 4f3b 0d67 763b
00000110: 76e7 543b 4c13 2c3b 510e 423b cda5 333b

exp_avg f4 [8]
-0.00493072 0.0069433805 0.0015413052 0.007257195 0.015072837 -0.004819359 -0.011130408 0.012694135
00000000: e191 a1bb 4c85 e33b 9f05 ca3a c4cd ed3b
00000010: 0ff4 763c b7eb 9dbb 515c 36bc 10fb 4f3c

exp_avg_sq f4 [8]
0.0067150034 0.0024735453 0.0064270864 0.007978634 0.0050236546 0.0035455117 0.002364451 0.0046439534
00000000: 8809 dc3b 341b 223b 4f9a d23b d1b8 023c
00000010: 789d a43b d15b 683b e8f4 1a3b 4e2c 983b

exp_avg f4 [16, 8, 3, 3]
0.0011755554 0.0052785324 0.004063028 0.002636956 0.0038922098 0.0047705197 0.00025923937 0.0053016804
0.0006115892 0.0011272626 0.0029384457 0.0049176174 0.00095259957 0.0015601339 0.0047977036 0.0138733415
0.0073694307 0.005215021 -0.0025171058 0.00072737044 0.0031530927 0.0034501343 0.0030181417 0.0019476701
-6.7864916e-05 -0.00015584409 0.0015199117 -0.00041816765 -0.0023324073 -0.0037599425 0.0011591595 -0.00018544386
-0.0027587588 0.0022360615 0.0010383487 3.0243367e-05 -0.0005925385 -0.0015742388 0.002032566 0.004870307
-0.00024514296 -0.0027245004 5.3976044e-05 -0.006442738 -0.0027233744 0.0024363867 0.000356922 0.0007015018
0.0006041583 0.0011250599 -0.0026353109 0.004715415 -0.00096682477 -0.0015427216 -0.0014505462 0.0026681693
-0.0054880413 0.00072733196 -0.0010972342 -0.0025720887 0.0041674995 0.003706316 -0.0008118946 0.0014756289
-0.0010320094 -0.00076983543 0.00013908443 0.0016558635 -0.0021332146 0.00087699236 -0.00092061836 0.0022041935
6e-45 6e-45 6e-45 6e-45 6e-45 6e-45 6e-45 6e-45
6e-45 6e-45 6e-45 6e-45 6e-45 6e-45 6e-45 6e-45
6e-45 6e-45 -6e-45 6e-45 6e-45 6e-45 6e-45 6e-45
6e-45 6e-45 6e-45 6e-45 6e-45 6e-45 6e-45 6e-45
6e-45 6e-45 6e-45 6e-45 6e-45 6e-45 6e-45 6e-45
6e-45 6e-45 6e-45 6e-45 6e-45 6e-45 6e-45 6e-45
6e-45 6e-45 6e-45 6e-45 6e-45 6e-45 6e-45 6e-45
6e-45 -6e-45 6e-45 6e-45 6e-45 6e-45 6e-45 6e-45
6e-45 6e-45 6e-45 6e-45 6e-45 6e-45 6e-45 6e-45
-0.015420034 -0.012193871 -0.0117135905 -0.0105455145 -0.008624605 -0.010214799 -0.007729143 -0.010921349
-0.014972171 -0.0032100615 -0.009762265 -0.0067412914 -0.004456244 -0.010011907 -0.009344775 -0.014084023
-0.016357472 -0.010879717 -0.008136966 -0.008917072 -0.009341283 -0.0029550337 0.00024438024 -0.0035235877
0.002019035 0.001024952 -0.005694899 0.0018101846 0.0005123551 -5.1575782e-05 -0.0009774539 0.0015979045
0.0011927597 -0.005449813 -0.00422303 -0.0012053408 -0.004573268 -0.0064983033 -0.0068250257 -0.0012079425
0.0017420431 0.0028958335 -0.0029621266 0.0012352301 0.0005751018 -0.004382882 -0.005437203 -0.0078079877
-0.005812833 -0.0054885303 -0.0060104644 -0.0094891535 -0.009678674 -0.003905633 -0.0016756178 -9.396899e-05
-0.0005333105 -0.0064894003 -0.0023461233 0.00017881319 -0.008837959 -0.008130176 -0.007947557 -0.01453754
-0.011783751 -0.011658538 -0.016170291 -0.015112354 -0.012215836 -0.01401183 -0.011302075 -0.012918824
0.0032007112 -0.0027640269 -0.0014099617 0.0013266003 -0.0060060895 -0.008057529 -0.00484157 -0.011556805
-0.005769147 1.2808477e-05 -0.0033164502 -0.0027117708 -0.006044865 -0.0014807719 0.0003515245 -0.0041664676
-0.0014897899 -0.0031403552 0.0046615014 0.0018763788 0.0019054196 0.0039887973 0.0013186312 -0.0043291803
-0.0006205993 -0.0026353355 -0.00016430416 -0.00012627126 -0.0027587775 -0.0015528026 -0.0030473843 -0.003305691
-0.00035687737 -0.0028883251 -0.0047397064 -0.0028120466 0.00035657003 0.0017748165 0.0014101779 0.0002848081
00000000: 1815 9a3a 8af7 ac3b 2623 853b c8d0 2c3b
00000010: 7214 7f3b 0552 9c3b 85ea 8739 b8b9 ad3b
00000020: 0e53 203a a8c0 933a f092 403b f723 a13b
00000030: e0b7 793a 687d cc3a 0e36 9d3b 034d 633c
00000040: 447b f13b c4e2 aa3b 07f6 24bb 01ad 3e3a
00000050: 1ea4 4e3b a61b 623b 04cc 453b f748 ff3a
00000060: b352 8eb8 146a 23b9 c637 c73a 833d dbb9
00000070: 4ddb 18bb 5e69 76bb f0ee 973a b573 42b9
00000080: 4bcc 34bb e38a 123b 3319 883a 23b3 fd37
00000090: 9654 1bba b056 ceba cc34 053b 1997 9f3b
000000a0: 8886 80b9 888d 32bb 5664 6238 9b1d d3bb
000000b0: a47a 32bb c9ab 1f3b 4321 bb39 fde4 373a
000000c0: 6160 1e3a bf76 933a 2eb5 2cbb c583 9a3b
000000d0: 8372 7dba 2635 caba 4120 beba 74dc 2e3b
000000e0: 07d5 b3bb 6caa 3e3a 12d1 8fba 7d90 28bb
000000f0: 858f 883b aae5 723b 53d5 54ba e469 c13a
00000100: 7d44 87ba c8ce 49ba 31d7 1139 8f09 d93a
00000110: 67cd 0bbb f6e5 653a a755 71ba 3b74 103b
00000120: 0400 0000 0400 0000 0400 0000 0400 0000
00000130: 0400 0000 0400 0000 0400 0000 0400 0000
00000140: 0400 0000 0400 0000 0400 0000 0400 0000
00000150: 0400 0000 0400 0000 0400 0000 0400 0000
00000160: 0400 0000 0400 0000 0400 0080 0400 0000
00000170: 0400 0000 0400 0000 0400 0000 0400 0000
00000180: 0400 0000 0400 0000 0400 0000 0400 0000
00000190: 0400 0000 0400 0000 0400 0000 0400 0000
000001a0: 0400 0000 0400 0000 0400 0000 0400 0000
000001b0: 0400 0000 0400 0000 0400 0000 0400 0000
000001c0: 0400 0000 0400 0000 0400 0000 0400 0000
000001d0: 0400 0000 0400 0000 0400 0000 0400 0000
000001e0: 0400 0000 0400 0000 0400 0000 0400 0000
000001f0: 0400 0000 0400 0000 0400 0000 0400 0000
00000200: 0400 0000 0400 0080 0400 0000 0400 0000
00000210: 0400 0000 0400 0000 0400 0000 0400 0000
00000220: 0400 0000 0400 0000 0400 0000 0400 0000
00000230: 0400 0000 0400 0000 0400 0000 0400 0000
00000240: 4fa4 7cbc cdc8 47bc 5cea 3fbc 18c7 2cbc
00000250: 374e 0dbc f95b 27bc c044 fdbb 75ef 32bc
00000260: d64d 75bc e55f 52bb e8f1 1fbc 0de6 dcbb
00000270: af05 92bb fb08 24bc d41a 19bc adc0 66bc
00000280: 1b00 86bc d740 32bc e950 05bc e918 12bc
00000290: 2e0c 19bc 3da9 41bb 2920 8039 feeb 66bb
000002a0: c951 043b af57 863a 469c babb b743 ed3a
000002b0: 924f 063a 1353 58b8 e91d 80ba c770 d13a
000002c0: 6056 9c3a 5894 b2bb 5861 8abb 87fc 9dba
000002d0: 5adb 95bb b8ef d4bb 77a4 dfbb d353 9eba
000002e0: 4455 e43a 06c8 3d3b 3d20 42bb 72e7 a13a
000002f0: 6ec2 163a 479e 8fbb 912a b2bb 26da ffbb
00000300: 9479 bebb 21d9 b3bb 6ef3 c4bb 6578 1bbc
00000310: 4d93 1ebc a6f5 7fbb 67a0 dbba 3811 c5b8
00000320: ddcd 0bba 09a5 d4bb 6bc1 19bb cd7f 3b39
00000330: 16cd 10bc 6e34 05bc 7836 02bc dd2e 6ebc
00000340: a210 41bc 7403 3fbc 8f77 84bc cf99 77bc
00000350: ee24 48bc e091 65bc 572c 39bc 7aa9 53bc
00000360: 06c3 513b ad24 35bb 77ce b8ba 52e1 ad3a
00000370: bbce c4bb ba03 04bc 08a6 9ebb c158 3dbc
00000380: 1d0b bdbb fde3 5637 cd58 59bb f7b7 31bb
00000390: 0114 c6bb 7616 c2ba d24c b839 dd86 88bb
000003a0: 0e45 c3ba 6bce 4dbb 82bf 983b d3f0 f53a
000003b0: 46bf f93a 75b4 823b ecd5 ac3a ccdb 8dbb
000003c0: b7af 22ba 98b5 2cbb 1049 2cb9 af67 04b9
000003d0: 9bcc 34bb 6987 cbba a0b6 47bb 4ba4 58bb
000003e0: 451b bbb9 0e4a 3dbb 8a4f 9bbb 504a 38bb
000003f0: 05f2 ba39 f6a0 e83a b8d5 b83a 4c52 9539

exp_avg_sq f4 [16, 8, 3, 3]
0.00080002315 0.0009413433 0.0020982043 0.0006373667 0.00085064705 0.0028471956 0.0003641518 0.0014852926
0.0033973097 0.0012826741 0.0017472843 0.0018946745 0.00064655213 0.0017869972 0.001713122 0.0019788903
0.0023527197 0.0014306939 0.0007470627 0.00060989393 0.000438634 0.0010746293 0.0008673333 0.00069349393
0.00049483386 0.00050759705 0.00081842014 0.0004070703 0.0005387992 0.00060215464 0.00015205213 0.0003119603
0.0004621936 0.00012400543 0.00016851441 0.00032438416 0.00065199524 0.0006857604 0.00039832923 0.0007373807
0.00080381363 0.00049748534 0.00032781923 0.00053732604 0.00047184908 0.00038101093 0.0006719978 0.00077399076
0.00027614142 0.0009548529 0.0010196237 0.00034894337 0.0010354052 0.000951309 0.00066323613 0.0010138834
0.0015544913 0.00021320197 0.00041547845 0.0012222521 0.0003353016 0.0003464431 0.0011970637 0.002102229
0.0018968391 0.0015434346 0.0023469261 0.0017630263 0.0011815218 0.0024636432 0.0015834856 0.0010909706
3.1029785e-14 3.2349577e-14 2.2089283e-13 3.1642613e-14 3.2755943e-14 3.7044298e-14 3.257013e-14 3.3251878e-14
3.223791e-14 9.713356e-16 6.959549e-16 6.7640997e-16 9.370633e-16 6.608479e-16 6.597962e-16 7.109378e-16
6.809916e-16 6.691287e-16 1.2343494e-17 5.215848e-17 1.9611017e-15 1.0180054e-17 1.5858376e-16 2.2380265e-16
2.3561173e-17 2.3504307e-16 2.787894e-16 9.124595e-16 9.060392e-16 9.053261e-14 9.119582e-16 9.057947e-16
9.053858e-14 9.043781e-16 9.047166e-16 9.061276e-16 1.0272113e-15 1.0184073e-15 1.0187757e-15 1.0296128e-15
1.0303221e-15 1.0355682e-15 1.0267563e-15 1.0561379e-15 1.0845831e-15 1.094885e-13 1.0946353e-13 1.0771269e-13
1.0956732e-13 1.0942597e-13 1.07812535e-13 1.0960107e-13 1.0907723e-13 1.0769108e-13 8.657901e-17 8.900438e-16
2.2388451e-13 3.0683186e-17 3.8018944e-16 2.0370126e-13 4.21257e-17 4.3188116e-16 4.929883e-16 6.5022627e-16
3.8715716e-16 1.262994e-14 3.895375e-16 1.2406706e-16 9.233344e-16 7.9818105e-17 2.929288e-16 8.961005e-16
0.0025173903 0.003547822 0.0035387313 0.0032646991 0.0037935718 0.0030815124 0.002643584 0.0032690885
0.004045757 0.0037994147 0.0038209592 0.0031088658 0.003933111 0.0036441507 0.0035629242 0.0025986393
0.0038612082 0.0043232734 0.0007922826 0.0012041124 0.0012265377 0.00066604326 0.0009875394 0.0009830964
0.0009965402 0.0010983907 0.0016147571 0.0003419914 0.00041401997 0.0006193747 0.0006937471 0.0006041246
0.0005454262 0.0012676192 0.0014360048 0.00080902764 0.00046406308 0.0006029036 0.00063259783 0.00052302645
0.0005587718 0.0005885178 0.0013765944 0.0009414588 0.00083480106 0.0011847161 0.0011176368 0.0008725544
0.0015163139 0.001036279 0.0009463434 0.0016507752 0.0012064669 0.0010116245 0.0012640673 0.0012651978
0.001702813 0.0020230566 0.002239807 0.0018746711 0.002178895 0.003156625 0.0025654503 0.0036057737
0.003044175 0.0034228582 0.0027381903 0.0027747764 0.0029928489 0.0017942328 0.002132263 0.0024706856
0.00072591915 0.0014665218 0.00092002633 0.000874654 0.0014774175 0.0006895464 0.0007540942 0.0010929011
0.00054136146 0.0007793743 0.0003816035 0.00010905932 0.00044362963 0.00012220028 0.00011396371 0.0003352254
0.00021043216 0.00039321848 0.00028711904 0.0005303096 0.0006311971 0.00024990345 0.0003487049 0.00035446172
0.00018298274 0.00013571716 7.185997e-05 8.437368e-05 8.479428e-05 9.792093e-05 7.091057e-05 0.00010842827
5.2250147e-05 0.00012248494 0.00024461324 0.000174681 0.00028536728 0.00024827366 0.00031469137 0.00024182681
00000000: a5b8 513a 7bc4 763a 0782 093b f514 273a
00000010: f5fd 5e3a 0498 3a3b a1eb be39 26ae c23a
00000020: 66a5 5e3b 671f a83a 2205 e53a ba56 f83a
00000030: 617d 293a ad39 ea3a d68a e03a 45b0 013b
00000040: 1630 1a3b 1f86 bb3a 87d6 433a 4ae1 1f3a
00000050: 75f8 e539 93da 8c3a c15d 633a 97cb 353a
00000060: bdb7 013a 4310 053a 3f8b 563a 0d6c d539
00000070: 343e 0d3a ead9 1d3a 2f70 1f39 9a8e a339
00000080: 9352 f239 7407 0239 3eb3 3039 1b12 aa39
00000090: a9ea 2a3a 9ac4 333a d8d6 d039 c84c 413a
000000a0: 05b7 523a ad69 023a 27df ab39 57db 0c3a
000000b0: 8362 f739 6cc2 c739 0229 303a a4e5 4a3a
000000c0: 13c7 9039 184f 7a3a e5a4 853a 63f2 b639
000000d0: 6fb6 873a 4461 793a 06dd 2d3a 48e4 843a
000000e0: 13c0 cb3a f88e 5f39 93d4 d939 fa33 a03a
000000f0: 6bcb af39 cea2 b539 cbe6 9c3a 8dc5 093b
00000100: 5c9f f83a 124d ca3a e3ce 193b 5915 e73a
00000110: 4bdd 9a3a 1375 213b f68c cf3a e6fe 8e3a
00000120: e8be 0b29 86b0 1129 06b4 782a 7381 0e29
00000130: 0885 1329 2bd5 2629 ceae 1229 cec0 1529
00000140: c82f 1129 f5fb 8b26 6898 4826 3ff6 4226
00000150: 890b 8726 f879 3e26 5e2c 3e26 f3e9 4c26
00000160: 5048 4426 fcdc 4026 81b2 6323 dd89 7024
00000170: f14f 0d27 f2c9 3b23 aad5 3625 7103 8125
00000180: 3f50 d923 3c7e 8725 0eb6 a025 d07f 8326
00000190: f292 8226 7fdc cb29 526d 8326 ed89 8226
000001a0: f0df cb29 aa55 8226 2762 8226 3596 8226
000001b0: 6809 9426 99c4 9226 30d2 9226 0262 9426
000001c0: 2d7c 9426 b93d 9526 9ff8 9326 9c34 9826
000001d0: 0e4e 9c26 d38b f629 6e7d f629 238c f229
000001e0: 42b9 f629 c767 f629 b2c5 f229 b7cc f629
000001f0: be9e f529 ae7f f229 3aa3 c724 d244 8026
00000200: 5112 7c2a 5080 0d24 0f2a db25 e458 652a
00000210: 4045 4224 69f6 f825 1e18 0e26 3b6a 3b26
00000220: 502e df25 5185 6328 978d e025 220a 0f25
00000230: 0711 8526 4b0c b824 a9dc a825 4624 8126
00000240: cdfa 243b 9382 683b 0fea 673b 90f4 553b
00000250: 939d 783b 33f3 493b fb3f 2d3b 343e 563b
00000260: 4592 843b 9aff 783b 0f69 7a3b 1dbe 4b3b
00000270: 54e1 803b b4d2 6e3b f37f 693b ef4d 2a3b
00000280: 530c 7d3b 3faa 8d3b 2fb1 4f3a 4fd3 9d3a
00000290: c7c3 a03a 6899 2e3a 5370 813a 3edb 803a
000002a0: 579e 823a e0f7 8f3a 42a6 d33a 4f4d b339
000002b0: d210 d939 885d 223a 94dc 353a 1e5e 1e3a
000002c0: effa 0e3a 3e26 a63a 5338 bc3a ed14 543a
000002d0: 7e4d f339 2d0c 1e3a ecd4 253a b61b 093a
000002e0: 8a7a 123a c346 1a3a d86e b43a 3bcc 763a
000002f0: 8dd6 5a3a 7a48 9b3a ab7d 923a 22bc 643a
00000300: 0dbf c63a c1d3 873a 0814 783a d35e d83a
00000310: 5022 9e3a 7c98 843a 0faf a53a fed4 a53a
00000320: ec30 df3a 4295 043b bac9 123b 86b7 f53a
00000330: cbcb 0e3b 61df 4e3b 1d21 283b d84e 6c3b
00000340: c880 473b 0852 603b 3673 333b 06d9 353b
00000350: ac23 443b 762c eb3a 70bd 0b3b 3aeb 213b
00000360: 9c4b 3e3a 4e38 c03a ec2d 713a 0949 653a
00000370: e8a5 c13a adc2 343a 68ae 453a ad3f 8f3a
00000380: 27ea 0d3a ed4e 4c3a f411 c839 c7b6 e438
00000390: f696 e839 e322 0039 cdff ee38 31c1 af39
000003a0: 74a7 5c39 e428 ce39 7788 9639 7a04 0b3a
000003b0: ec76 253a 7905 8339 61d2 b639 0cd7 b939
000003c0: 0edf 3f39 4c4f 0e39 87b3 9638 c6f1 b038
000003d0: 95d3 b138 e65a cd38 d3b5 9438 fc63 e338
000003e0: 2b27 5b38 4d6f 0039 6f3f 8039 932a 3739
000003f0: 599d 9539 ba2a 8239 29fd a439 e492 7d39

exp_avg f4 [16]
0.00055009464 6e-45 -0.0078026443 -0.00053872756 -0.005436691 0.00535602 -0.0018913111 -0.0058186604
-0.0027105215 0.001105882 0.002371654 0.0036306297 -0.0019411828 6e-45 0.00022447473 -0.008926673
00000000: 3a34 103a 0400 0000 53ad ffbb 6539 0dba
00000010: 4526 b2bb 8d81 af3b dfe5 f7ba 76aa bebb
00000020: 01a3 31bb 3ef3 903a c06d 1b3b dcef 6d3b
00000030: 496f feba 0400 0000 fa60 6b39 2e41 12bc

exp_avg_sq f4 [16]
0.0006195684 2.7237303e-14 0.0011290808 0.00024871633 0.00018632467 0.00043504502 0.00095624494 0.00037685505
0.00045737077 0.0002652801 0.0003683107 0.000403366 0.0010473335 4.5083003e-11 0.00034187717 0.001029424
00000000: 886a 223a f254 f528 aafd 933a 2466 8239
00000010: 2660 4339 c116 e439 83ac 7a3a a194 c539
00000020: 44cb ef39 4b15 8b39 d319 c139 de7a d339
00000030: ae46 893a f346 462e fa3d b339 bded 863a

exp_avg f4 [32, 16, 3, 3]
0.002146227 0.0029570467 -0.0018150356 0.0027429736 0.004241315 0.001692063 0.0030155068 0.003063284
0.0033491834 -6e-45 6e-45 -6e-45 -6e-45 6e-45 -6e-45 6e-45
-6e-45 -6e-45 0.0022778825 0.0022599606 0.0011698601 0.0024780955 9.732869e-05 0.00010919259
0.0015422051 -0.00057870673 -0.0025524707 0.00079046306 0.0008578653 0.0008770059 -8.7742854e-05 0.0013371386
0.001442694 0.0001000835 0.0016701553 0.0011911527 5.4018667e-05 0.00041592488 0.0032854825 -0.00019355353
0.00031016313 0.0031054292 -8.726628e-05 0.00036582098 0.0018617474 0.0035678311 0.0035136822 0.0017481259
0.0028381813 0.0037970247 0.0058696647 0.0027452058 0.00026892847 0.00034752325 0.0026263585 0.0020527083
-0.0008866737 0.0021966374 0.0017649314 0.0004770113 0.002132267 0.002504949 0.0033730406 0.0005534414
0.001616194 0.0018676285 0.0018607997 -0.0002938262 0.00047245275 0.0019749794 -0.0010240751 -0.0019517721
0.0027488214 0.0010172395 0.0003935011 0.0019686962 0.0004853436 -0.000634708 0.002479775 0.0020114598
-0.0004965115 0.0011633699 0.002067167 0.0020073159 0.00081228354 0.0011597461 0.0038034199 -7.4383825e-05
-0.0003070568 0.0017589603 0.0016225472 -0.0016293726 -0.0027726442 -0.0014385813 0.001112717 -0.000733755
0.001255477 0.0019182701 0.0016508775 0.002839187 0.0016507105 -0.0030732723 0.0010711956 0.0023647968
0.002028437 0.0026842353 0.00413662 0.0032524494 3.5266312e-05 0.00071628334 0.0018689103 0.0012139042
-0.0016015748 -0.0016197136 -0.0018486007 -0.0015985302 -0.0015905611 -6e-45 -6e-45 -6e-45
-6e-45 -6e-45 6e-45 -6e-45 -6e-45 6e-45 0.0035082202 0.0009296722
-0.0016269727 0.0030149894 0.0036473358 0.0027948276 0.0029975253 0.003848433 0.0016831958 0.00060876133
0.00034145848 -0.0007845237 0.0012833361 0.0013070788 0.00017256833 0.00017974169 0.0008843231 0.0017306755
0.0037584847 0.0041364376 -0.0039203116 0.0019269937 0.00138635 -0.0035027482 0.0012981092 -0.0020951442
-0.0005539176 6e-45 6e-45 6e-45 -6e-45 6e-45 -6e-45 -6e-45
-6e-45 6e-45 0.00040402793 0.0018736473 0.0003427135 -0.0007622778 -0.0008766975 -0.0011144159
8.585621e-05 -0.0016426614 -0.0028726442 0.0008592841 0.00012166082 3.207512e-05 -0.0008586747 -0.0010786118
4.0230748e-07 -0.00085162773 -3.8884977e-05 5.3454012e-05 -6.427086e-05 0.000898427 0.0030192093 9.432771e-05
-0.0003331871 0.0017222977 -0.00019830027 0.00069220975 0.00070198096 0.0014125723 -0.0003691422 -0.0060603335
-0.0006697297 0.0009608774 0.0017941232 -0.0012063972 -0.0018916778 0.000548525 0.0032028356 0.00242805
-0.00072424504 0.0005353007 0.00033251673 -0.0037827415 0.00082103023 -3.58222e-05 0.00018900502 0.00026921558
0.0010321161 0.000629047 -0.002402601 -0.00057679013 0.00016485491 -0.001430616 -0.0024844527 -0.0013265887
0.0021339678 -0.0038999026 -0.0042805895 -0.0018914716 -0.0028404007 -0.0030556 0.00032208924 0.0019507749
0.00071353436 0.0001962357 0.000554095 -0.0021854746 0.0003755723 2.539993e-05 0.0033181128 -6.693186e-05
-0.00025326913 0.0030124097 0.0024360253 -0.0052100774 -0.0050470824 -0.0028326306 -0.0019470035 -0.0025750252
-0.00088922493 0.0027790465 0.0016150133 0.0046557076 0.0012340327 -0.0067859744 -0.0009332586 0.00010168247
-0.0018415735 -0.0035995494 -0.0019491756 -0.0019956816 -0.004068451 -0.0040861503 0.000563129 -0.0003657807
00000000: b7a7 0c3b 03cb 413b 7de6 edba 76c3 333b
00000010: bbfa 8a3b 36c8 dd3a cf9f 453b 61c1 483b
00000020: f97d 5b3b 0400 0080 0400 0000 0400 0080
00000030: 0400 0080 0400 0000 0400 0080 0400 0000
00000040: 0400 0080 0400 0080 8748 153b d91b 143b
00000050: fe55 993a 8b67 223b f11c cc38 53fe e438
00000060: d123 ca3a 5ab4 17ba 5a47 27bb 1437 4f3a
00000070: 5ee2 603a dfe6 653a 9602 b8b8 ed42 af3a
00000080: c718 bd3a ebe3 d138 1de9 da3a 7420 9c3a
00000090: 1a92 6238 7e10 da39 4051 573b a1f4 4ab9
000000a0: 649d a239 7584 4b3b ba02 b7b8 a9cb bf39
000000b0: e005 f43a 46d2 693b ce45 663b 5f21 e53a
000000c0: c800 3a3b 81d7 783b 5156 c03b e9e8 333b
000000d0: f8fe 8c39 c833 b639 fc1e 2c3b bb86 063b
000000e0: aa6f 68ba 76f5 0f3b 4555 e73a 5f17 fa39
000000f0: 81bd 0b3b 122a 243b 3b0e 5d3b d314 113a
00000100: 79d6 d33a 37cb f43a 14e6 f33a af0c 9ab9
00000110: 89b3 f739 a86e 013b 423a 86ba 9bd2 ffba
00000120: 9225 343b e554 853a d34e ce39 3e05 013b
00000130: b775 fe39 8862 26ba b983 223b b2d2 033b
00000140: 5328 02ba 377c 983a 4f79 073b 2c8d 033b
00000150: 6def 543a 9f02 983a cc42 793b 83fe 9bb8
00000160: 77fc a0b9 ea8c e63a a6ab d43a ac90 d5ba
00000170: 40b5 35bb c78e bcba 96d8 913a 7759 40ba
00000180: d18e a43a 776e fb3a 4262 d83a a711 3a3b
00000190: a75c d83a f468 49bb 5c67 8c3a b5fa 1a3b
000001a0: 87ef 043b ffe9 2f3b 7c8c 873b 0c27 553b
000001b0: eaea 1338 f6c4 3b3a 39f6 f43a de1b 9f3a
000001c0: efeb d1ba 924c d4ba bf4c f2ba c685 d1ba
000001d0: 607a d0ba 0400 0080 0400 0080 0400 0080
000001e0: 0400 0080 0400 0080 0400 0000 0400 0080
000001f0: 0400 0080 0400 0000 2bea 653b 3fb5 733a
00000200: 2540 d5ba 2197 453b 2408 6f3b 6d29 373b
00000210: 2172 443b fe35 7c3b ae9e dc3a 4895 1f3a
00000220: c805 b339 7fa8 4dba 9d35 a83a 4952 ab3a
00000230: 75f3 3439 0b79 3c39 ebd1 673a d5d7 e23a
00000240: e950 763b f48a 873b f575 80bb 2e93 fc3a
00000250: 30b6 b53a 5d8e 65bb 5125 aa3a b04e 09bb
00000260: c834 11ba 0400 0000 0400 0000 0400 0000
00000270: 0400 0080 0400 0000 0400 0080 0400 0080
00000280: 0400 0080 0400 0000 b6d3 d339 2c95 f53a
00000290: 3aae b339 99d3 47ba 2cd2 65ba 9811 92ba
000002a0: b40d b438 924e d7ba f942 3cbb 9441 613a
000002b0: 2824 ff38 6688 0638 af18 61ba 3560 8dba
000002c0: b8fc d734 c53f 5fba 6d18 23b8 cf33 6038
000002d0: 28c9 86b8 6a84 6b3a eddd 453b ced1 c538
000002e0: 9eaf aeb9 b9be e13a d3ee 4fb9 6975 353a
000002f0: 2505 383a 1026 b93a 6d89 c1b9 c395 c6bb
00000300: cd90 2fba 64e3 7b3a c928 eb3a f91f 9eba
00000310: 2df2 f7ba e4ca 0f3a aae6 513b eb1f 1f3b
00000320: 43db 3dba 6c53 0c3a a455 ae39 dfe7 77bb
00000330: 683a 573a cb3f 16b8 a62f 4639 8125 8d39
00000340: 1248 873a a1e6 243a f574 1dbb bb33 17ba
00000350: e7dc 2c39 8283 bbba 33d2 22bb eee0 adba
00000360: 0ada 0b3b 8295 7fbb 3044 8cbb 41eb f7ba
00000370: 0426 3abb 7640 48bb 16de a839 25b1 ff3a
00000380: 7b0c 3b3a 9fc4 4d39 b040 113a 2e3a 0fbb
00000390: 76e8 c439 ef11 d537 b274 593b c55d 8cb8
000003a0: 35c9 84b9 d96b 453b b9a5 1f3b 4cb9 aabb
000003b0: ff61 a5bb a8a3 39bb 9932 ffba c1c1 28bb
000003c0: e01a 69ba aa20 363b dbae d33a e88e 983b
000003d0: 44bf a13a e15c debb eda5 74ba 5c3e d538
000003e0: f460 f1ba 6be6 6bbb 7b7b ffba fbc9 02bb
000003f0: a450 85bb 1de5 85bb f39e 133a 41c6 bfb9
