assignment_1/code/mnist-classifier/best-mlp.pth (torch, 9071 bytes, 15 tensors)

layers.0.weight f4 [16, 2]
0	0xbf18ec7f	-0.59735864
1	0xbeb503a6	-0.35354346
2	0xbf0d07f0	-0.55090237
3	0xbf19822c	-0.5996425
4	0xbec863ea	-0.39138728
5	0x3e35b875	0.17746146
6	0x3eb415af	0.35172793
7	0xbee75178	-0.45179343
8	0x3d50d618	0.050985426
9	0xbe656f02	-0.22405627
10	0xbf195adf	-0.59904283
11	0xbdee6bb7	-0.11641639
12	0xbe03ccaf	-0.1287105
13	0xbf1d26c2	-0.61387265
14	0x3f178842	0.5919229
15	0xbeac73f1	-0.33682206
16	0xbf015957	-0.50526947
17	0x3d3621c2	0.044465788
18	0xbead432d	-0.33840314
19	0xbe04677b	-0.129301
20	0xbd1da35a	-0.038485862
21	0x3f21043e	0.628971
22	0x3dba603c	0.091003865
23	0xbda5ca8b	-0.08095273
24	0xbf23cfdf	-0.6398906
25	0x3f1434bd	0.5789297
26	0x3e8e9fbf	0.27856252
27	0x3dccd8e4	0.10002306
28	0xbf26db6d	-0.6517857
29	0xbede7460	-0.43448162
30	0x3ed61c8d	0.41818658
31	0xbd5d93ee	-0.054096155

layers.0.bias f4 [16]
0	0xbf44170d	-0.7659767
1	0xbe2bf850	-0.16793942
2	0xbf394dc5	-0.7238429
3	0x3e07c7d3	0.1325982
4	0xbecf8d87	-0.40537664
5	0x3f89e76b	1.0773748
6	0xbf4669b8	-0.77505064
7	0x3ec29bf3	0.38009605
8	0xbf8a6629	-1.0812427
9	0x3eb68d3d	0.3565463
10	0xbf67ff8c	-0.9062431
11	0x3f8aaf6a	1.0834782
12	0x3e2507b1	0.16116215
13	0xbeb83280	-0.35976028
14	0xbf82d601	-1.0221559
15	0xbf84e036	-1.0380924

layers.2.weight f4 [16, 16]
0	0x3e1103ff	0.1416168
1	0x3d06dec3	0.032927286
2	0xbceaa69e	-0.028643902
3	0x3d7bf51a	0.061513044
4	0x3e1a9e23	0.15099387
5	0xbe15bf0c	-0.1462366
6	0x3e8d5682	0.27605063
7	0x3d955cff	0.07293128
8	0x3e96a258	0.29420733
9	0xbde8f812	-0.11375441
10	0x3e95d388	0.29262948
11	0xbe759e1c	-0.23986095
12	0x3d8ffc17	0.07030504
13	0x3e0d738b	0.13813607
14	0x3dd7293a	0.1050591
15	0x3e7c6cdf	0.24650906
16	0xbca6e346	-0.020372044
17	0x3d00b50f	0.03142267
18	0x3d8d9639	0.06913418
19	0x3d3086d8	0.043097347
20	0x3cf4f503	0.029901987
21	0x3cad486e	0.021152701
22	0x3dba651e	0.09101318
23	0x3e8974a9	0.26846817
24	0x3dbe7bdd	0.09300969
25	0xbdbccf05	-0.09219173
26	0xbdea325a	-0.11435385
27	0x3ed559e0	0.41670132
28	0x3e442438	0.19154441
29	0xbd5752d1	-0.052569214
30	0xbe154f85	-0.14581116
31	0xbcabd006	-0.020973217
32	0xbdb2f2ae	-0.08737694
33	0x3d1f0983	0.03882743
34	0x3eb9bd48	0.36277223
35	0x3e4c9d65	0.19981916
36	0x3d8daaba	0.06917329
37	0x3bc1f035	0.0059185275
38	0xbd9c6e7a	-0.07638259
39	0x3dc73ff8	0.09728998
40	0x3ef4aaf1	0.47786668
41	0xbe3b5b08	-0.18296444
42	0x3e83f306	0.2577135
43	0xbde991b1	-0.114047416
44	0xbd8c7a00	-0.06859207
45	0xbdf2bb80	-0.11852169
46	0x3e835dbd	0.25657454
47	0x3e8a5aca	0.27022392
48	0x3daa7df1	0.08324803
49	0x3e343f4a	0.17602268
50	0x3e6da91e	0.23209044
51	0x3da9c0d8	0.08288735
52	0x3e57aa99	0.21061172
53	0xbe26bfba	-0.16284075
54	0x3bf005ec	0.0073249247
55	0xbc1d9f57	-0.009620509
56	0xbe0a46df	-0.13503598
57	0xbc401c4a	-0.011725495
58	0x3e427069	0.18988194
59	0xbdde9f27	-0.108702
60	0x3aeb4718	0.0017950265
61	0x3b26d08b	0.002545389
62	0x3e311fbf	0.17297266
63	0x3ea76a4d	0.3269829
64	0x3d9ba479	0.0759973
65	0xbdc1abff	-0.09456634
66	0x3c29cee1	0.010364265
67	0x3d652408	0.055942565
68	0x3e11fe5d	0.14257188
69	0x3dae047a	0.084969476
70	0x3e9462b2	0.2898155
71	0x3e09f463	0.13472132
72	0x3eb1a4c6	0.34696025
73	0xbdddd0a5	-0.108308114
74	0x3e593dbf	0.2121496
75	0xbe8fba0e	-0.28071636
76	0x3d87eb34	0.06636658
77	0x3eadc722	0.3394099
78	0x3da635ed	0.08115754
79	0x3eba008e	0.36328548
80	0x3e45c382	0.19312862
81	0xbe43d074	-0.19122487
82	0xbbd5a552	-0.006519952
83	0x3e082fad	0.13299437
84	0xbd4b1d41	-0.049588446
85	0x3d80fe8b	0.0629855
86	0x3e5060f2	0.20349482
87	0x3e3e71dd	0.18598123
88	0x3e34df72	0.17663363
89	0x3c9a7009	0.01885225
90	0x3e262d90	0.16228318
91	0xbe830c8c	-0.2559551
92	0x3db71d55	0.089411415
93	0x3e5631a9	0.20917381
94	0x3d7d3ef1	0.061827604
95	0x3e5b3895	0.21408303
96	0x3e030d64	0.12798077
97	0xbcabf1f4	-0.020989396
98	0x3e5df2d5	0.21674664
99	0xbe0d3a83	-0.13791852
100	0x3e74ade6	0.23894462
101	0xbe95c94a	-0.29255134
102	0x3e8e1546	0.27750605
103	0x3e162f15	0.14666398
104	0x3e852540	0.26004982
105	0x3e620fe3	0.22076373
106	0x3e2f51c3	0.17121033
107	0xbe76bb40	-0.24094868
108	0x3d26c1ad	0.040712047
109	0x3e238228	0.1596762
110	0x3dc06217	0.09393709
111	0x3eba0421	0.36331275
112	0xbe538396	-0.20655665
113	0x3e2f6e82	0.17131999
114	0xbc55dfca	-0.013053844
115	0xbe014616	-0.12624392
116	0xbe58814c	-0.21143073
117	0xbe758d30	-0.2397964
118	0x3ba2d200	0.0049688816
119	0xbe352ac1	-0.1769209
120	0x3de9dacc	0.11418685
121	0x3e264aac	0.16239423
122	0x3d1a4543	0.03766371
123	0xbac45500	-0.0014978945
124	0xbd5effea	-0.054443277
125	0xbd10096f	-0.035165247
126	0x3ddb2d98	0.10702056
127	0x3c35c019	0.011093163
128	0x3cdffaf5	0.027341345
129	0x3c89135e	0.016732868
130	0xbc26672e	-0.010156436
131	0x3dc3e458	0.095650375
132	0x3d1e326c	0.038622305
133	0xbe8849cc	-0.26618803
134	0x3e8478c3	0.25873384
135	0x3dd6ffb3	0.104979895
136	0x3eb6af1d	0.35680476
137	0x3e7fc9d9	0.24979343
138	0x3e9227c9	0.2854598
139	0xbe995f59	-0.29955557
140	0x3dbcbed4	0.09216085
141	0x3e09e0b7	0.13464628
142	0x3e18ec8d	0.14933987
143	0x3ea02f1b	0.3128594
144	0xbddc7899	-0.1076519
145	0x3e215b01	0.15757371
146	0xbe778e2e	-0.24175331
147	0xbe57d248	-0.2107631
148	0x3e894c99	0.26816252
149	0xbd1d8d77	-0.03846499
150	0x3ea40738	0.32036757
151	0x3ddcebe1	0.10787178
152	0xbc7ba69d	-0.015359548
153	0xbe4563d1	-0.19276358
154	0x3e351689	0.17684378
155	0xbb62ad28	-0.0034588072
156	0x3cc86029	0.024459915
157	0x3d771b38	0.060328692
158	0x3c4d7964	0.012541149
159	0x3ea23c8a	0.31686813
160	0xbc936950	-0.017994553
161	0x3de6047b	0.11231323
162	0x3ec39350	0.38198328
163	0x3dd39c0c	0.10332498
164	0x3e5f13b7	0.21784864
165	0xbe17c1c3	-0.14820008
166	0x3e87b10c	0.26502264
167	0xbd997d26	-0.07494573
168	0x3ed3a146	0.4133398
169	0xbdd6e46f	-0.10492789
170	0x3ec6b2ed	0.38808385
171	0xbe350f51	-0.17681624
172	0xbd70d170	-0.058793485
173	0x3e893ba3	0.26803312
174	0x3e086499	0.13319625
175	0x3f16d2b4	0.5891526
176	0x3bee7fa7	0.007278401
177	0xbdf1f6d7	-0.11814659
178	0x3e4d5a54	0.20053989
179	0xbe8dad6d	-0.27671376
180	0xbc38d3c7	-0.01128096
181	0xbd967a5d	-0.07347558
182	0xbd077dc4	-0.033078924
183	0x3d727c01	0.05920029
184	0x3e1fe205	0.15613563
185	0xbdb709b1	-0.08937395
186	0x3b52971c	0.0032133525
187	0xbe92bd87	-0.28660223
188	0x3e176447	0.14784347
189	0x3ca8317d	0.02053141
190	0x3e0ea0f3	0.13928585
191	0xbe07d44e	-0.13264582
192	0xbc6ff999	-0.014646911
193	0x3e75b507	0.23994838
194	0xbd695ff7	-0.056976285
195	0xbd9607e5	-0.073257245
196	0x3dd0dde1	0.1019857
197	0xbdd3ff81	-0.10351468
198	0x3e1f2f81	0.15545465
199	0x3e7da79e	0.24770972
200	0x3efc0bb3	0.49227676
201	0x3cb13dfa	0.021635998
202	0x3e960225	0.2929851
203	0xbe8f24ee	-0.27957863
204	0x3d8b832b	0.06812128
205	0x3e4253b9	0.1897725
206	0xbd91b160	-0.0711391
207	0x3e728e8a	0.23687187
208	0xbccaad9c	-0.024740987
209	0x3db2d167	0.087313466
210	0xbdef5859	-0.11686773
211	0xbd900a8d	-0.070332624
212	0x3dff8010	0.12475598
213	0x3f00ca98	0.50309134
214	0xbd5734eb	-0.0525407
215	0x3e93807f	0.28808972
216	0xbe9d778f	-0.30755278
217	0x3e184546	0.14870176
218	0x3e02afed	0.12762423
219	0x3ec5c77b	0.38628754
220	0x3e2306e0	0.15920591
221	0xbd8dd5de	-0.069255576
222	0x3c25d804	0.010122303
223	0xbe57bbb2	-0.21067694
224	0x3e330160	0.17480993
225	0x3dab313e	0.083590016
226	0xb875f57c	-5.8641177e-05
227	0xbe4afe5f	-0.19823597
228	0x3e970af2	0.29500538
229	0xbd72044e	-0.059086137
230	0x3e552d83	0.20818143
231	0x3e345187	0.17609225
232	0xbd76f37f	-0.06029081
233	0xbc4cf968	-0.012510635
234	0x3e8d2792	0.27569252
235	0xbd875c74	-0.06609431
236	0x3d12febc	0.035887465
237	0x3c9fd6df	0.019511638
238	0x3e0d9c86	0.1382924
239	0x3eb93025	0.36169544
240	0x3e0f9f1e	0.14025542
241	0x3da54567	0.08069878
242	0x3e8c5c77	0.27414295
243	0x3d50aebd	0.050947893
244	0x3e1d99f8	0.15390766
245	0xbd4797ee	-0.048728876
246	0x3e20063e	0.15627381
247	0x3e175441	0.14778234
248	0x3e6ffaa3	0.23435454
249	0xbe1b2e75	-0.1515444
250	0x3eb9406e	0.36181968
251	0xbe93dce9	-0.2887948
252	0xbcb69ae6	-0.022290658
253	0x3e5fb856	0.21847662
254	0x3dfe9d1f	0.12432312
255	0x3ea32fdf	0.3187246

layers.2.bias f4 [16]
0	0xbee924d8	-0.45535922
1	0x3eee156d	0.46500722
2	0xbf025f34	-0.5092652
3	0xbe8f0dfb	-0.27940354
4	0xbf3446f3	-0.7042076
5	0xbf1eafbf	-0.6198692
6	0xbea0b9f8	-0.31391883
7	0xbd5f11fd	-0.054460514
8	0xbf0c19f3	-0.54727095
9	0xbec2e41a	-0.38064653
10	0xbf174c34	-0.5910065
11	0xbe2ae65f	-0.16689442
12	0xbf297302	-0.66191113
13	0x3f5ca4a6	0.86188734
14	0xbf0b17d1	-0.54333216
15	0xbf2e3c01	-0.6806031

layers.4.weight f4 [1, 16]
0	0x3e84f19d	0.25965586
1	0xbe8ff42b	-0.28115973
2	0x3ded2506	0.11579327
3	0x3e0364b3	0.12831382
4	0x3ec7820c	0.38966405
5	0x3e9ed7f5	0.31024137
6	0x3ec78386	0.38967532
7	0xbe2ebd25	-0.1706434
8	0x3f2e8110	0.68165684
9	0x3e92cda3	0.28672513
10	0x3f26d709	0.6517187
11	0x3e00ad17	0.12566029
12	0x3f4f185a	0.8089653
13	0xbf4716ab	-0.77768964
14	0x3e3b68a5	0.18301637
15	0x3efb51f6	0.4908597

exp_avg f4 [16, 2]
0	0xba603662	-0.00085530255
1	0x3b996967	0.0046817544
2	0x3a0a43dc	0.0005274394
3	0x3b3d743c	0.0028908392
4	0xbb970810	-0.0046091154
5	0x3ba51347	0.0050376984
6	0xbb0cb7c7	-0.0021471845
7	0xb777c76b	-1.4768778e-05
8	0x3a1217a0	0.00055729784
9	0x3c32845e	0.010895817
10	0x3c1952a5	0.009358083
11	0xbd2dc5d2	-0.042424984
12	0xbc87d6b1	-0.016581865
13	0x3cb2cae3	0.02182526
14	0xbc435fc2	-0.011924686
15	0x3a661649	0.00087771245
16	0xbb862125	-0.0040933066
17	0xbc031bcb	-0.008002232
18	0x3aa7f8ad	0.00128152
19	0xbb392d89	-0.00282559
20	0xbd00ca35	-0.03144284
21	0xbca9e72f	-0.02074012
22	0x3db000d0	0.08593905
23	0xbd132a2b	-0.035928886
24	0x3a5ed487	0.0008500297
25	0xbb9bb073	-0.004751259
26	0xbce3d752	-0.027812634
27	0xbd06e096	-0.032929026
28	0xba8ae0e1	-0.0010595584
29	0x3bf09960	0.0073425025
30	0xbd80d124	-0.062898904
31	0xbac82c7a	-0.0015272044

exp_avg_sq f4 [16, 2]
0	0x39cf4a14	0.0003953731
1	0x39ab1af1	0.00032635735
2	0x39fb3607	0.00047914704
3	0x3a4e03db	0.0007858851
4	0x3ac2afd5	0.0014853427
5	0x3aa4fc12	0.001258733
6	0x392a05d3	0.00016214633
7	0x3913bd93	0.00014089634
8	0x3a7ba50c	0.0009599484
9	0x3aa83fab	0.0012836357
10	0x3bc9623a	0.0061457427
11	0x3c1f229e	0.009712843
12	0x3be945e0	0.0071189255
13	0x3c23b7f1	0.0099925855
14	0x3ae74a37	0.0017646019
15	0x3ac93d24	0.0015353304
16	0x3cb23d84	0.021757849
17	0x3c6b6cd5	0.014369209
18	0x38c18c2d	9.229067e-05
19	0x3903fa84	0.00012586458
20	0x3c07557f	0.00826013
21	0x3c4dec0c	0.012568485
22	0x3ca72941	0.020405414
23	0x3cba4b88	0.022741094
24	0x38eb7a44	0.00011228447
25	0x39629d58	0.00021611655
26	0x3c094af5	0.008379688
27	0x3bc70866	0.006073999
28	0x3a1f00fa	0.0006065514
29	0x3a389f6d	0.0007042799
30	0x3cdbaaf4	0.026814915
31	0x3c684266	0.014175987

exp_avg f4 [16]
0	0x3a70760e	0.0009172865
1	0x3ab96616	0.0014144804
2	0x3b9478e0	0.004531011
3	0x3a0e8ca1	0.00054378255
4	0x3b30e6d0	0.0026993044
5	0xbc347260	-0.011013597
6	0x3b4a05bf	0.003082618
7	0xbb0385e1	-0.0020068812
8	0x3bdeef0b	0.0068033985
9	0xba262ba5	-0.0006338901
10	0x3aa0ece1	0.0012277627
11	0xbcb0174e	-0.021495488
12	0xbad244c6	-0.0016042225
13	0x3a60382a	0.0008553291
14	0x3ab12543	0.0013515133
15	0xbb638ba2	-0.0034720679

exp_avg_sq f4 [16]
0	0x379523ee	1.7778915e-05
1	0x380d8fef	3.375107e-05
2	0x3894b71e	7.091298e-05
3	0x37347eaa	1.0758327e-05
4	0x38558d38	5.0914678e-05
5	0x39ed2777	0.00045233566
6	0x39d50f2c	0.0004063783
7	0x38af60dd	8.3626925e-05
8	0x3a5a8f25	0.000833737
9	0x36e66789	6.8665872e-06
10	0x39f8a9e4	0.00047428824
11	0x3abc02d8	0.0014344109
12	0x372dbbf8	1.0355368e-05
13	0x39cb2569	0.0003874705
14	0x37f63953	2.9352179e-05
15	0x3a85bfc0	0.0010204241

exp_avg f4 [16, 16]
0	0xbb102e82	-0.0022000377
1	0xbb1b4a6d	-0.0023695484
2	0xb9f2ea72	-0.00046332512
3	0xbb98cb13	-0.00466288
4	0xbac8829f	-0.0015297717
5	0x3b015d81	0.001973957
6	0xbb491f1d	-0.003068871
7	0xbbd19b1c	-0.0063966643
8	0xbaad5165	-0.001322311
9	0xb986412a	-0.00025607023
10	0xba53adc1	-0.00080749026
11	0x3a60bd97	0.0008573173
12	0x3b1d3508	0.0023987908
13	0xbb768e3b	-0.0037621397
14	0xbb331cdc	-0.0027330434
15	0xbb80ff5f	-0.0039366926
16	0x3a669175	0.00087954785
17	0x39e436b2	0.000435283
18	0xba1165c9	-0.0005546478
19	0x3ae9d8a9	0.0017841059
20	0x3ab9d7d5	0.0014178703
21	0xbbc8c262	-0.006126688
22	0x3b2b68fe	0.002615511
23	0x3ac44237	0.0014973347
24	0x3a0c94d2	0.0005362752
25	0xbac84cf2	-0.001528172
26	0xbaa275db	-0.0012394743
27	0xbbaccb8d	-0.0052732886
28	0xbbf5ccfe	-0.0075012436
29	0x3b1679f0	0.0022960864
30	0x3ac03734	0.0014664889
31	0x3b3f4b4b	0.0029189165
32	0xba94250a	-0.0011302542
33	0xbac6d80d	-0.0015170589
34	0x37b92e40	2.2075255e-05
35	0xbab6f4f5	-0.0013958501
36	0xba3e6eb3	-0.000726442
37	0x3a62c217	0.00086501375
38	0xbaee1827	-0.0018165157
39	0xbaf29010	-0.0018506069
40	0xb9aa5ee4	-0.00032495626
41	0xb8c25b49	-9.267644e-05
42	0xbabca9ae	-0.001439383
43	0x39be24d6	0.0003626707
44	0x3a4eb1c5	0.0007884766
45	0xbadcbf3e	-0.0016841663
46	0xbabcdf59	-0.0014409825
47	0xbac0fca2	-0.0014723728
48	0xba6b0608	-0.00089654373
49	0xba0d7228	-0.0005395734
50	0xba5ccd39	-0.00084229145
51	0xbaaac543	-0.0013028759
52	0xba2b9900	-0.0006545931
53	0x39806d09	0.000244953
54	0xba9e21ab	-0.0012064477
55	0xbaef39c7	-0.0018251472
56	0xba862542	-0.0010234492
57	0xb98d840e	-0.00026992004
58	0xbae615ea	-0.0017554138
59	0x3a4c32ff	0.00077895814
60	0xbacb67b6	-0.0015518579
61	0xbada74da	-0.0016666905
62	0xba87ff5a	-0.0010375783
63	0xbad167cc	-0.0015976368
64	0xbb48ba5a	-0.0030628652
65	0xbb967823	-0.004591958
66	0x39029079	0.00012451586
67	0xbbca2a05	-0.00616956
68	0xbb2ddf02	-0.0026530628
69	0x3b7800c3	0.003784225
70	0xbbcb39b8	-0.006201949
71	0xbbe9016d	-0.0071107657
72	0xba850c3f	-0.0010150744
73	0x391a38a3	0.00014707683
74	0xbb70f045	-0.0036764306
75	0x3aae79d4	0.0013311454
76	0x3b41bdbc	0.0029562553
77	0xbb9ffcbe	-0.004882424
78	0xbb8451b9	-0.0040380624
79	0xbb9a1b3e	-0.0047029546
80	0xbb1d9154	-0.002404292
81	0xbb48ac5e	-0.0030620317
82	0x396c7c0d	0.00022552926
83	0xbb54f859	-0.003249666
84	0xbaefbdd1	-0.0018290823
85	0x3b63e65a	0.0034774751
86	0xbb8c430a	-0.0042804526
87	0xbb6bc10a	-0.0035973215
88	0xba4fa0a0	-0.00079203583
89	0x39a3a9ac	0.00031216198
90	0xbb36e453	-0.0027907088
91	0x3b0e41f7	0.0021706799
92	0x3b3d9dd6	0.002893319
93	0xbb725e83	-0.0036982603
94	0xbb4fa27a	-0.0031682537
95	0xbb641cb3	-0.0034807145
96	0xbb31a2da	-0.0027105124
97	0xbb6d2fab	-0.0036191742
98	0xb9dd3aa7	-0.00042196104
99	0xbbb374db	-0.0054765767
100	0xbb20a146	-0.002451019
101	0x3b59977e	0.0033201869
102	0xbbb0e3d6	-0.005398254
103	0xbbc645d6	-0.0060508056
104	0xbaadfadf	-0.0013273618
105	0x3902a6c7	0.00012459896
106	0xbb7611f9	-0.0037547334
107	0x3b090a4c	0.0020910678
108	0x3a964afb	0.0011466438
109	0xbb916b55	-0.004437844
110	0xbb6b2b54	-0.003588398
111	0xbb960a3c	-0.0045788568
112	0x00000000	0.0
113	0x00000000	0.0
114	0x00000004	6e-45
115	0x00000000	0.0
116	0x00000000	0.0
117	0x00000000	0.0
118	0x00000000	0.0
119	0x07197d1d	1.1547208e-34
120	0x00000000	0.0
121	0x00000000	0.0
122	0x09edc8a7	5.7244367e-33
123	0x00000000	0.0
124	0x094cfc44	2.4674222e-33
125	0x090ee6f6	1.7201226e-33
126	0x00000000	0.0
127	0x07b15c3b	2.6686208e-34
128	0xbba457d7	-0.005015354
129	0xbbb4e726	-0.005520719
130	0xba86c2e6	-0.0010281473
131	0xbc0f5b30	-0.008749768
132	0xbb7a4603	-0.0038188703
133	0x3bb0be02	0.0053937444
134	0xbc069f95	-0.008216758
135	0xbc40d62a	-0.011769811
136	0xbb32f111	-0.0027304331
137	0x37fd5977	3.020161e-05
138	0xbbeaea1a	-0.0071690204
139	0x3b33d43d	0.0027439736
140	0x3aaa9e32	0.0013017117
141	0xbc17eab8	-0.00927227
142	0xbbd35888	-0.0064497627
143	0xbc10fdc1	-0.008849562
144	0xbac026ff	-0.0014660059
145	0xbaf8931b	-0.0018964739
146	0xb9e64b59	-0.00043925157
147	0xbba71fce	-0.005100227
148	0xbad9d4cb	-0.0016619203
149	0x3a541a56	0.00080910826
150	0xbb4811ab	-0.003052811
151	0xbbdef4b4	-0.006804073
152	0xb8b80277	-8.774263e-05
153	0xb740c0e5	-1.1489004e-05
154	0xbb9a2242	-0.004703791
155	0xba15f75f	-0.000572076
156	0xbb4ae8ca	-0.0030961507
157	0xbb84628b	-0.0040400675
158	0xbb017560	-0.00197538
159	0xbb8e889a	-0.0043497803
160	0xbb9da3a7	-0.0048107686
161	0xbbba1a87	-0.005679432
162	0xba80d2c1	-0.0009828435
163	0xbc2ac6e0	-0.010423392
164	0xbb83feb1	-0.0040281643
165	0x3ba61c2e	0.0050692772
166	0xbc0a4f69	-0.008441784
167	0xbc5b4643	-0.013383451
168	0xbb2b994d	-0.0026183904
169	0xb830f54b	-4.2190117e-05
170	0xbbcca1a2	-0.006244854
171	0x3af54521	0.0018712619
172	0x3ace90de	0.0015759727
173	0xbc0ec558	-0.008714043
174	0xbbcaaf8b	-0.006185477
175	0xbc0fa059	-0.008766257
176	0xba071106	-0.0005152378
177	0xb9e2f3d1	-0.00043287736
178	0x3897fa7f	7.2468996e-05
179	0x01558f7d	3.922487e-38
180	0xb59784ea	-1.128906e-06
181	0x3a9a37c6	0.0011765889
182	0xb980b9cc	-0.00024552492
183	0xacea2588	-6.654847e-12
184	0xba07df0a	-0.0005183077
185	0x3893d905	7.049929e-05
186	0x39a2069c	0.00030903972
187	0x3a4e591d	0.0007871555
188	0x3b11af71	0.0022229815
189	0xb9c8ddf3	-0.00038312338
190	0xba1e5cb2	-0.00060410344
191	0xb736b332	-1.08897675e-05
192	0xbbd86938	-0.00660434
193	0xbc0481f0	-0.00808762
194	0xba426133	-0.00074149965
195	0xbc39dd62	-0.011344286
196	0xbb9fe981	-0.0048801308
197	0x3bcb777b	0.0062093115
198	0xbc3538ad	-0.011060876
199	0xbc659303	-0.014012101
200	0xbb33c3a3	-0.002742984
201	0xb937a076	-0.00017512016
202	0xbc0a0049	-0.00842292
203	0x3b4303f7	0.0029757002
204	0x3b2e0fe1	0.0026559758
205	0xbc2dd486	-0.010609752
206	0xbc0ba1fb	-0.008522506
207	0xbc2934de	-0.010327546
208	0x3b1c41a8	0.0023842845
209	0x3a9229e5	0.0011151402
210	0xbaca1744	-0.0015418311
211	0x3ba06650	0.004895009
212	0x3b810c5d	0.0039382414
213	0xbc8c2233	-0.017106151
214	0x3bed0b76	0.0072340323
215	0x3b848eaf	0.0040453295
216	0x3ac15a23	0.0014751594
217	0xbb8cc5e1	-0.00429605
218	0xbb61b8d0	-0.0034442432
219	0xbc716eea	-0.014735917
220	0xbcaace58	-0.020850345
221	0x3bcf7ab6	0.006331767
222	0x3b835adc	0.004008634
223	0x3c044bd0	0.008074716
224	0xba8c87f2	-0.0010721667
225	0xba2fe74b	-0.00067101856
226	0xba3d1e62	-0.0007214305
227	0xbb53446d	-0.003223683
228	0xba8a36a3	-0.0010544847
229	0x3abc3ec8	0.0014361972
230	0xbaeddd5f	-0.0018147639
231	0xbb91ab45	-0.0044454657
232	0xba9b22bc	-0.0011835913
233	0xb8667d70	-5.4953096e-05
234	0xba9e234b	-0.0012064961
235	0x3a3dd6e7	0.0007241801
236	0x39829d5d	0.00024912777
237	0xbb2d2c34	-0.0026424052
238	0xbaabdf29	-0.0013112772
239	0xbb35783d	-0.0027690076
240	0xbb6a8e87	-0.003579052
241	0xbb9894ca	-0.004656409
242	0xba3c60c4	-0.000718605
243	0xbbfb5f5b	-0.0076712794
244	0xbb4cc781	-0.0031246843
245	0x3b721aae	0.0036942172
246	0xbbdfc116	-0.0068284376
247	0xbc1c8c1a	-0.009554887
248	0xbafbf0ad	-0.0019221507
249	0xb8dedb42	-0.00010626625
250	0xbba695e8	-0.005083788
251	0x3ab8eda7	0.0014108912
252	0x3a7514f3	0.000934913
253	0xbbd25791	-0.00641913
254	0xbb97c225	-0.004631298
255	0xbbcd25f1	-0.0062606265

exp_avg_sq f4 [16, 16]
0	0x39eb9420	0.00044933055
1	0x3a579d70	0.0008225059
2	0x391cff4a	0.00014972422
3	0x3a36e11e	0.0006976294
4	0x3805965b	3.18497e-05
5	0x3a2c9ef9	0.0006584968
6	0x39bd1f8e	0.000360724
7	0x3a43491a	0.00074495526
8	0x39138f4a	0.00014072392
9	0x393a7051	0.00017780183
10	0x398ee700	0.0002725646
11	0x3972b967	0.00023147986
12	0x3a72f249	0.00092676707
13	0x38c01a2f	9.1601505e-05
14	0x39fe39c1	0.00048489685
15	0x38d8f62e	0.00010345537
16	0x3929919f	0.00016171344
17	0x3a0422c5	0.00050405815
18	0x378c3f43	1.6718759e-05
19	0x3a4f4bc8	0.00079077156
20	0x37e72507	2.7554588e-05
21	0x3964b74f	0.00021812062
22	0x399b0425	0.00029566992
23	0x3a58da90	0.00082723144
24	0x37b31ccd	2.1351874e-05
25	0x38a973af	8.080096e-05
26	0x38a91dc4	8.064092e-05
27	0x398e7561	0.00027171805
28	0x392d36ba	0.00016518953
29	0x38bb2e7d	8.925514e-05
30	0x395bfdee	0.00020980064
31	0x38de7616	0.0001060778
32	0x37ca312e	2.4103178e-05
33	0x386c6e4d	5.636951e-05
34	0x36cf9400	6.18631e-06
35	0x38a00791	7.630804e-05
36	0x3633175c	2.6686675e-06
37	0x382f2dc0	4.176586e-05
38	0x37ed71e0	2.8305629e-05
39	0x38b3e0bb	8.5772444e-05
40	0x36e51ddb	6.8282075e-06
41	0x37478a27	1.189349e-05
42	0x370fbc57	8.5673155e-06
43	0x37d4392e	2.5298996e-05
44	0x3820a004	3.8296e-05
45	0x370c5e93	8.36667e-06
46	0x37f1244b	2.8746339e-05
47	0x3737857c	1.0938729e-05
48	0x396c7a01	0.00022552164
49	0x39cfd8c0	0.00039643608
50	0x3863c6d6	5.4306198e-05
51	0x39be2146	0.00036264415
52	0x37768691	1.4694074e-05
53	0x398d230d	0.0002691973
54	0x393438b2	0.00017187258
55	0x39b60d87	0.00034723824
56	0x38811bb2	6.156358e-05
57	0x38a8fdda	8.058148e-05
58	0x3898d193	7.286961e-05
59	0x38f10772	0.00011493162
60	0x3984e7c8	0.00025349692
61	0x383aace8	4.4506887e-05
62	0x397934a5	0.00023766102
63	0x384863b5	4.7776575e-05
64	0x3a3ec6bc	0.00072775385
65	0x3aa453f8	0.0012537232
66	0x398945d0	0.0002618269
67	0x3a89862a	0.0010492255
68	0x38534524	5.0370712e-05
69	0x3a9e4e73	0.0012077823
70	0x3a10c703	0.0005522819
71	0x3aab3f51	0.0013065134
72	0x397f25ca	0.00024332773
73	0x399aca3a	0.0002952384
74	0x39fb897a	0.0004797688
75	0x39c225fb	0.0003703086
76	0x3add7526	0.0016895875
77	0x3923ffcc	0.00015640183
78	0x3a4ea77d	0.0007883234
79	0x393cedb5	0.0001801763
80	0x3a4d1aaf	0.00078241056
81	0x3ab4c3e9	0.0013791296
82	0x398d9e5b	0.000270116
83	0x3aa111e9	0.0012288663
84	0x3863cf1d	5.4313907e-05
85	0x3a94db37	0.0011356835
86	0x3a21b958	0.0006169281
87	0x3aab98d3	0.001309181
88	0x39817304	0.0002469049
89	0x399c0b02	0.0002976284
90	0x39e08242	0.0004282166
91	0x39d2c58d	0.00040201508
92	0x3ad4aeca	0.0016226408
93	0x3921edf7	0.00015442805
94	0x3a5c1973	0.0008396126
95	0x3938c351	0.00017620368
96	0x3a16745e	0.0005739386
97	0x3a9d45d0	0.0011998955
98	0x39819e2d	0.00024722648
99	0x3aeba23e	0.0017977429
100	0x3863fd22	5.4356766e-05
101	0x3a85eda4	0.0010217917
102	0x3a1aa1f4	0.00058987667
103	0x3b071d1c	0.0020616716
104	0x394e629c	0.00019682426
105	0x398ba19c	0.00026632554
106	0x3a41a4fe	0.00073869515
107	0x3a248d88	0.00062771933
108	0x3af2f514	0.0018536174
109	0x398cf51c	0.00026885502
110	0x3a2b1a7d	0.00065270794
111	0x39962d32	0.00028643903
112	0x00000000	0.0
113	0x00000000	0.0
114	0x3172771e	3.5283345e-09
115	0x00000000	0.0
116	0x00000000	0.0
117	0x00000000	0.0
118	0x00000000	0.0
119	0x2f1992d0	1.3967427e-10
120	0x00000000	0.0
121	0x00000000	0.0
122	0x366ebe4a	3.5575526e-06
123	0x00000000	0.0
124	0x35d41c97	1.5803552e-06
125	0x344bb19f	1.8970466e-07
126	0x00000000	0.0
127	0x304d0eb5	7.4599465e-10
128	0x3ab4ed3d	0.0013803613
129	0x3b2ab14f	0.0026045626
130	0x3a0bdf1a	0.0005335674
131	0x3ac7b007	0.0015234955
132	0x38d9e812	0.00010390593
133	0x3b2333c6	0.0024902686
134	0x3a94250b	0.0011302544
135	0x3ae9941f	0.0017820633
136	0x39f9a4eb	0.00047615854
137	0x3a24d1ef	0.0006287386
138	0x3ab252fd	0.0013605055
139	0x3a0688ad	0.00051320606
140	0x3b817967	0.00395124
141	0x393e6ff0	0.00018161512
142	0x3acc1d2e	0.0015572661
143	0x3957fe65	0.00020598767
144	0x3929f398	0.00016207842
145	0x3a106b86	0.00055091863
146	0x37be5e5e	2.2693708e-05
147	0x3a5e05bb	0.0008469482
148	0x3805485b	3.1777057e-05
149	0x3942e944	0.0001858818
150	0x39b2477f	0.00034004074
151	0x3a6d3bc2	0.0009049737
152	0x371cf3b8	9.35507e-06
153	0x38a1818a	7.701207e-05
154	0x398cd0a0	0.0002685832
155	0x39934a60	0.0002809344
156	0x39b0d256	0.00033726048
157	0x38f268a1	0.00011558948
158	0x3962602c	0.00021588866
159	0x3904eb38	0.00012676127
160	0x3b132091	0.002244983
161	0x3b8bae72	0.004262739
162	0x3a38da3b	0.0007051562
163	0x3b63b538	0.0034745466
164	0x3932c439	0.00017048501
165	0x3b65ba5d	0.0035053708
166	0x3af81f73	0.0018930271
167	0x3b842f7e	0.004033982
168	0x3a392019	0.0007061973
169	0x3a74e172	0.00093414553
170	0x3ac03378	0.0014663776
171	0x3a9cff49	0.0011977936
172	0x3b95514b	0.00455681
173	0x3a00436b	0.00048928586
174	0x3b2493db	0.0025112543
175	0x3a13ef06	0.0005643222
176	0x389c484b	7.452125e-05
177	0x3836d37d	4.3589145e-05
178	0x38aa1fc3	8.112148e-05
179	0x3380758d	5.981847e-08
180	0x33be862d	8.871971e-08
181	0x3922c1b7	0.00015521688
182	0x361bda7f	2.3223981e-06
183	0x369d9ea1	4.6974315e-06
184	0x38519f99	4.997812e-05
185	0x37cfca92	2.4770652e-05
186	0x39178354	0.00014449406
187	0x3559d105	8.1142963e-07
188	0x3a0c2b34	0.0005347014
189	0x36e80e41	6.915798e-06
190	0x386ada47	5.5993234e-05
191	0x3544a8f0	7.3261526e-07
192	0x3b6d0070	0.003616359
193	0x3bdcfc44	0.0067439396
194	0x3a9fe960	0.0012200288
195	0x3bb46a05	0.0055058026
196	0x399042ee	0.00027515687
197	0x3bc06b52	0.0058721686
198	0x3b466e50	0.0030278154
199	0x3bd85bac	0.006602725
200	0x3a993093	0.001168745
201	0x3ac63df8	0.0015124669
202	0x3b276ab3	0.0025545775
203	0x3aff1169	0.0019460145
204	0x3c00da1a	0.007864499
205	0x3a58c0ad	0.0008268457
206	0x3b82e620	0.003994718
207	0x3a70ea43	0.0009190181
208	0x3b5e5d50	0.003393013
209	0x3bd512ed	0.0065025003
210	0x3a9cd410	0.0011965055
211	0x3bb88c88	0.005631987
212	0x39863167	0.0002559528
213	0x3bc4ef84	0.006009998
214	0x3b3ab491	0.0028488974
215	0x3bdc0bd5	0.0067152777
216	0x3a8d37a6	0.0010774031
217	0x3ac38d38	0.0014919406
218	0x3b1e1a6c	0.0024124635
219	0x3b1189b6	0.0022207326
220	0x3c082397	0.0083092665
221	0x3a50a78a	0.00079595356
222	0x3b72be02	0.0037039523
223	0x3a616532	0.0008598148
224	0x3981ccab	0.00024757287
225	0x39ea00cd	0.00044632555
226	0x38a3d13e	7.81142e-05
227	0x3990ef91	0.0002764431
228	0x378de952	1.6917158e-05
229	0x39b6cad1	0.00034864855
230	0x394ad6e4	0.00019344274
231	0x398fb8be	0.0002741273
232	0x38a0ba45	7.66409e-05
233	0x38c803aa	9.537426e-05
234	0x3914ddee	0.00014197055
235	0x38bc00d8	8.964696e-05
236	0x39ef1b88	0.00045606145
237	0x3808e2c8	3.2636133e-05
238	0x398a8ac9	0.00026424814
239	0x3816fa9a	3.5996178e-05
240	0x3a0711ca	0.0005152492
241	0x3a867ca0	0.001026053
242	0x394167ad	0.00018444537
243	0x3a85f2b9	0.0010219432
244	0x38397332	4.421472e-05
245	0x3a7dcfa6	0.0009682126
246	0x39f344ef	0.0004639993
247	0x3ab32988	0.0013668993
248	0x3937bf02	0.00017523396
249	0x397ff0e1	0.0002440843
250	0x3a01b123	0.0004947355
251	0x39c49fd8	0.00037503126
252	0x3ab695d6	0.0013930153
253	0x3929237f	0.0001613032
254	0x3a1b7ef2	0.0005931697
255	0x39445a83	0.00018725735

exp_avg f4 [16]
0	0x3b0f2255	0.0021840532
1	0xbbce797e	-0.006301104
2	0x3a48e86c	0.0007664028
3	0x3a636af7	0.0008675302
4	0x3b42cead	0.002972524
5	0x3b4e169e	0.0031446586
6	0x3b597f0c	0.0033187298
7	0x08a27d55	9.779486e-34
8	0x3b9eddf3	0.0048482358
9	0x39801604	0.00024430465
10	0x3b8effb4	0.0043639783
11	0x3a86d060	0.0010285489
12	0x3bbbda15	0.0057327845
13	0xbc8ff96d	-0.01757499
14	0x3ac01d3e	0.0014657152
15	0x3b511e3e	0.0031908895

exp_avg_sq f4 [16]
0	0x3938ef65	0.00017636789
1	0x38f5463e	0.00011695594
2	0x3729bad1	1.0116682e-05
3	0x38916507	6.9329566e-05
4	0x3987a24c	0.00025870127
5	0x398c57d6	0.00026768324
6	0x39cb45f5	0.000387713
7	0x3423bd62	1.5249455e-07
8	0x39f1732e	0.00046052918
9	0x391c53ae	0.00014908492
10	0x3a535a4f	0.0008062468
11	0x381307e1	3.505487e-05
12	0x3aae55de	0.0013300737
13	0x3afb49d8	0.0019171787
14	0x389bcd52	7.42922e-05
15	0x396e59b0	0.0002273086

exp_avg f4 [1, 16]
0	0xbcb8adbe	-0.022543784
1	0x3cac5006	0.021034252
2	0xbc826690	-0.015918046
3	0xbc6b86d7	-0.01437541
4	0xbcd22691	-0.025653156
5	0xbc9f486d	-0.019443715
6	0xbcb5989f	-0.022167502
7	0x86805106	-4.82673e-35
8	0xbcce400c	-0.025177024
9	0xbc5576dc	-0.013028827
10	0xbcf5dd54	-0.030012764
11	0xbb0370cc	-0.0020056246
12	0xbcc308b0	-0.023807853
13	0x3d38bc68	0.045101553
14	0xbc9a33e5	-0.018823573
15	0xbcde53bd	-0.027139539

exp_avg_sq f4 [1, 16]
0	0x3bf12734	0.0073594097
1	0x3bb6641e	0.005566134
2	0x3b76bb51	0.003764827
3	0x3c34f050	0.011043623
4	0x3b85c557	0.0040823626
5	0x3ba56de3	0.0050485
6	0x3b3e69ab	0.0029054682
7	0x31388318	2.6850042e-09
8	0x3a74fb8f	0.00093453465
9	0x3aa0c52e	0.0012265795
10	0x3b5ada2e	0.0033394205
11	0x3adc381f	0.0016801393
12	0x3acda4f0	0.0015689414
13	0x3c5e8c02	0.013583185
14	0x3bef79b1	0.007308208
15	0x3ae69251	0.0017591213
