assignment_1/code/best-mlp.pth (torch, 9071 bytes, 15 tensors)

layers.0.weight f4 [16, 2]
0.00959691 -0.11499682 0.5179945 0.29624504 -0.59097654 0.78956884 0.7461304 -0.22406347
0.71883994 0.2524788 0.47732046 -0.31679922 -0.5332018 0.17606153 -0.57462317 -0.78102535
0.58590025 0.057686646 -0.07561795 -0.5829463 -0.34028462 0.08567553 0.028862203 -0.005873621
-0.112140544 0.6615468 0.26965997 0.2366061 -0.7397516 0.34317994 0.16382569 -0.21818775
00000000: 5c3c 1d3c 7483 ebbd 4a9b 043f 6ead 973e
00000010: 3d4a 17bf 2f21 4a3f 6702 3f3f e570 65be
00000020: e505 383f e744 813e 5963 f43e 8233 a2be
00000030: ea7f 08bf 7949 343e 811a 13bf 47f1 47bf
00000040: 8ffd 153f d548 6c3d 95dd 9abd f83b 15bf
00000050: c939 aebe a776 af3d 6d70 ec3c 8177 c0bb
00000060: f1a9 e5bd 225b 293f df10 8a3e df48 723e
00000070: 5c60 3dbf 48b5 af3e ecc1 273e 9c6c 5fbe

layers.0.bias f4 [16]
1.1659664 -0.29981837 -1.0286518 -0.88794506 -0.32647908 -1.0000906 0.8888791 -0.735259
-0.4622181 -0.15092923 0.7422296 1.0315392 -0.30421293 1.2055238 -0.6162822 1.1831552
00000000: 633e 953f cb81 99be ddaa 83bf 5e50 63bf
00000010: 4428 a7be f802 80bf 958d 633f ef39 3cbf
00000020: daa7 ecbe 318d 1abe c202 3e3f 7a09 843f
00000030: ccc1 9bbe 9b4e 9a3f acc4 1dbf a171 973f

layers.2.weight f4 [16, 16]
0.4364967 -0.0038025714 -0.011494809 -0.009861519 0.04520925 -0.14085613 0.25718933 -0.16141906
0.0010827989 -0.14650296 -0.010129441 0.6290334 -0.04562301 0.07577581 0.046192348 0.08889627
0.24126539 -0.22982037 0.13887222 0.019329162 -0.06904604 0.05822414 0.0846997 -0.13961467
-0.20346569 -0.08401788 0.11636237 0.75436044 0.017763643 0.3654516 -0.0436828 0.24906698
0.17481574 -0.23165688 0.116764516 0.09337956 -0.20505846 -0.24055296 -0.13359463 -0.116750985
0.08834243 -0.24283624 -0.117545426 -0.08114499 -0.13992494 -0.0211232 0.022289455 -0.011656553
-0.17746143 -0.05212676 0.24814527 0.12967603 0.46511582 0.31525484 -0.17296709 0.30599603
0.113855384 0.4107858 -0.063194156 -0.77210206 0.2931787 -0.18318835 0.29434976 -0.1724579
-0.10781432 -0.016428536 0.3078782 0.35920212 0.37679857 0.16843306 -0.06767726 0.33197463
-0.04139484 0.15104884 -0.16955772 -0.34615374 0.14920422 -0.18523163 0.17494749 -0.1745428
-0.14984259 0.24622594 0.11269217 0.31552714 -0.01664659 0.3166378 0.12028462 0.26468804
0.135827 0.013177268 0.03774077 -0.37204158 0.1563118 -0.10510624 0.049127202 -0.08282754
-0.12448527 0.016827265 0.10828314 -0.08096611 0.30244616 0.28390634 -0.19276619 0.3956545
0.28562036 0.21192965 -0.06954806 -0.60637754 0.17927988 0.03340092 0.37844816 -0.20076598
0.043841347 0.11611276 0.31136596 0.2774485 0.3948179 0.12281082 -0.22661877 0.29409903
0.08878113 0.2243218 0.17167157 -0.48690346 0.14438742 -0.20668086 0.16464141 -0.24821086
-0.036717497 -0.1822143 0.011423517 0.09550201 -0.08651548 0.16153707 -0.0006567218 0.11926589
-0.27906463 -0.28066972 -0.19598483 -0.17773893 -0.2035208 0.09645081 -0.01575854 0.07815486
-0.10196157 0.18510628 0.29988956 0.32469684 -0.014806933 0.24791168 0.1313358 0.19995856
0.33946997 0.3011034 0.10440443 -0.6455811 0.3002425 -0.067431316 0.22209322 -0.2030619
-0.14319897 0.22689252 0.02524777 0.17470364 0.014393326 0.14549439 0.11908325 0.2981708
0.20704025 -0.022999922 -0.030482072 -0.39969906 0.09262649 -0.10499648 0.2477434 -0.0047274153
-0.15074939 0.02925984 -0.15374188 0.2729771 -0.008570864 0.19863465 0.12540859 0.17522214
-0.02473577 0.0431163 -0.1400439 -0.2962543 -0.0361987 -0.17214446 0.17547575 0.08362127
0.18352726 0.006740251 0.0020647289 0.08846307 0.0565907 -0.03731779 0.123851776 -0.061997514
0.09573101 -0.12482464 0.025904503 0.5213889 -0.2922223 0.05496775 0.10612861 0.08394765
-0.107008405 0.39640447 0.075901166 0.3634235 -0.057117052 0.18805732 -0.06917239 0.17462793
0.06920188 0.411365 -0.17712754 -0.7197841 0.44190234 -0.22679268 0.41218236 0.02097927
0.107624926 0.09435751 0.0016325619 0.20409974 0.21288729 0.094320774 -0.18803918 -0.095075786
-0.037707888 -0.061225176 -0.2818908 -0.071927585 0.29209 -0.09480141 -0.16698124 -0.3351952
0.3401327 0.042989437 -0.0987955 -0.13771062 0.059418768 -0.31919146 0.122485586 -0.24553785
-0.054463815 0.090023585 0.27451915 0.43479997 -0.26930758 0.2737575 -0.039343335 0.4251217
00000000: 7f7c df3e 9034 79bb b954 3cbc 3592 21bc
00000010: 562d 393d 973c 10be 52ae 833e 0a4b 25be
00000020: b4ec 8d3a df04 16be f4f5 25bc 5508 213f
00000030: 31df 3abd 5930 9b3d 3034 3d3d 3f0f b63d
00000040: 460e 773e 0856 6bbe 8534 0e3e 3158 9e3c
00000050: 0368 8dbd 707c 6e3d 0977 ad3d 26f7 0ebe
00000060: 4f59 50be 9111 acbd 654f ee3d c41d 413f
00000070: 0f85 913c 791c bb3e bcec 32bd 6a0b 7f3e
00000080: e602 333e 7637 6dbe 3c22 ef3d c83d bf3d
00000090: d8fa 51be 8453 76be 08cd 08be 241b efbd
000000a0: e0ec b43d 10aa 78be a8bb f0bd 582f a6bd
000000b0: 7c48 0fbe 900a adbc 6098 b63c 20fb 3ebc
000000c0: 73b8 35be df82 55bd cb19 7e3e cbc9 043e
000000d0: a923 ee3e 1569 a13e 491e 31be 83ab 9c3e
000000e0: 032d e93d 8452 d23e f06b 81bd 7ba8 45bf
000000f0: 851b 963e ba95 3bbe 03b5 963e ce98 30be
00000100: c1cd dcbd 2395 86bc 36a2 9d3e 57e9 b73e
00000110: beeb c03e b779 2c3e 609a 8abd 94f8 a93e
00000120: a38d 29bd 8cac 1a3e 8aa0 2dbe 103b b1be
00000130: fec8 183e 5cad 3dbe 6f25 333e 59bb 32be
00000140: 5670 19be a722 7c3e 27cb e63d c68c a13e
00000150: 6e5e 88bc 5a1e a23e c857 f63d 3185 873e
00000160: 3c16 0b3e 78e5 573c 1196 1a3d 3c7c bebe
00000170: 3310 203e f141 d7bd 9b39 493d 7ca1 a9bd
00000180: 22f2 febd 55d9 893c 8dc3 dd3d 8fd1 a5bd
00000190: 39da 9a3e 2c5c 913e 8064 45be 3a93 ca3e
000001a0: d53c 923e 1604 593e 376f 8ebd 8f3b 1bbf
000001b0: 2595 373e 67cf 083d f5c3 c13e 9995 4dbe
000001c0: fc92 333d 87cc ed3d 5c6b 9f3e bb0d 8e3e
000001d0: 9225 ca3e 3d84 fb3d c00e 68be 2694 963e
000001e0: e2d2 b53d 9db4 653e acca 2f3e 694b f9be
000001f0: 4cda 133e 26a4 53be c297 283e fd2a 7ebe
00000200: 1665 16bd 6396 3abe b429 3b3c 8f96 c33d
00000210: 072f b1bd f969 253e db27 2cba ad41 f43d
00000220: 8fe1 8ebe f1b3 8fbe 3fb0 48be 3201 36be
00000230: c267 50be 0188 c53d 0e18 81bc a80f a03d
00000240: 3ad1 d0bd 808c 3d3e 208b 993e aa3e a63e
00000250: c798 72bc 8fdc 7d3e e47c 063e f0c1 4c3e
00000260: 02cf ad3e 3a2a 9a3e fdd1 d53d ce44 25bf
00000270: 63b9 993e 6e19 8abd 686c 633e 75ef 4fbe
00000280: c0a2 12be 8356 683e 69d4 ce3c 83e5 323e
00000290: fcd1 6b3c 7bfc 143e ebe1 f33d d8a9 983e
000002a0: 5c02 543e 556a bcbc 8ab5 f9bc 5ba5 ccbe
000002b0: f5b2 bd3d 6508 d7bd 72b0 7d3e 6fe8 9abb
000002c0: 0c5e 1abe 55b2 ef3c 836e 1dbe a8c3 8b3e
000002d0: cf6c 0cbc e266 4b3e 1c6b 003e 6f6d 333e
000002e0: aba2 cabc b89a 303d ab67 0fbe a5ae 97be
000002f0: 1745 14bd a346 30be eaaf 333e a141 ab3d
00000300: 92ee 3b3e 53dd dc3b 6750 073b 202c b53d
00000310: a6cb 673d 8ada 18bd 00a6 fd3d 1bf1 7dbd
00000320: 9f0e c43d 10a4 ffbd ae35 d43c be79 053f
00000330: 299e 95be dd25 613d f559 d93d bfec ab3d
00000340: 3927 dbbd 87f5 ca3e 1272 9b3d a512 ba3e
00000350: 92f3 69bd 1992 403e 41aa 8dbd aad1 323e
00000360: b7b9 8d3d 6f9e d23e ec60 35be c543 38bf
00000370: 0641 e23e 573c 68be 9109 d33e b8dc ab3c
00000380: 756a dc3d 833e c13d b0fb d53a 86ff 503e
00000390: 20ff 593e 402b c13d 588d 40be 18b7 c2bd
000003a0: 9673 1abd 40c7 7abd fe53 90be c54e 93bd
000003b0: d28c 953e 3e27 c2bd 21fd 2abe b59e abbe
000003c0: e025 ae3e b115 303d 4c55 cabd 0304 0dbe
000003d0: 1861 733d 106d a3be b9d9 fa3d 466e 7bbe
000003e0: 7315 5fbd 495e b83d c68d 8c3e 1a9e de3e
000003f0: afe2 89be f129 8c3e 7a26 21bd 8da9 d93e

layers.2.bias f4 [16]
0.8468716 0.68910354 0.1558178 -0.5717109 -0.6187308 -0.57787174 -0.49937302 -0.7808444
-0.16850501 -0.73835605 -0.44453642 -0.28193167 0.8595294 -0.669001 -0.12110586 0.6925771
00000000: 94cc 583f 1769 303f b48e 1f3e a55b 12bf
00000010: 2465 1ebf 67ef 13bf d2ad ffbe 6be5 47bf
00000020: 948c 2cbe e704 3dbf 479a e3be 5959 90be
00000030: 1e0a 5c3f a643 2bbf 5906 f8bd bc4c 313f

layers.4.weight f4 [1, 16]
-0.46745843 -0.4820698 0.031214952 0.8050539 0.59216285 0.3257911 0.5600014 0.82881325
-0.05394277 0.18422464 0.3177661 0.17359567 -0.3951251 0.4246705 0.2174356 -0.99652034
00000000: b656 efbe dad1 f6be 80b6 ff3c 0318 4e3f
00000010: fc97 173f 17ce a63e 405c 0f3f 1b2d 543f
00000020: 18f3 5cbd 62a5 3c3e 3db2 a23e 10c3 313e
00000030: d64d cabe 696e d93e 70a7 5e3e f51b 7fbf

exp_avg f4 [16, 2]
0.012987331 0.0024022905 -0.0007069535 -0.0026758157 -0.014022631 -0.0043151905 0.0012398909 -0.0067640925
-0.0015316934 -0.00538327 0.0042392113 -0.0027281467 0.010285478 0.0005639293 -0.014632724 0.0012842122
-4.107924e-05 -0.0062057264 -0.0057282476 1.8824057e-05 0.006530279 0.00050721515 0.039639127 0.008948389
-0.009192306 -0.0032280353 0.0032713423 0.003571044 -0.011200776 0.005081151 0.01446161 0.0065648323
00000000: d0c8 543c bf6f 1d3b d952 39ba bd5c 2fbb
00000010: 2dbf 65bc 7166 8dbb d683 a23a 52a5 ddbb
00000020: 1ac3 c8ba 2466 b0bb 15e9 8a3b b5ca 32bb
00000030: 6c84 283c a8d4 133a 18be 6fbc 0353 a83a
00000040: 804c 2cb8 6859 cbbb 06b4 bbbb 5be8 9d37
00000050: f3fb d53b a2f6 043a a35c 223d 449c 123c
00000060: 539b 16bc 728d 53bb 0464 563b 2d08 6a3b
00000070: 7683 37bc c97f a63b 63f0 6c3c ce1d d73b

exp_avg_sq f4 [16, 2]
0.006868347 0.005061839 0.0008585205 0.00061673246 0.0023175785 0.0025315003 0.0065487074 0.004455727
0.0058206855 0.0048909113 0.008417468 0.005480128 0.0028707255 0.0036307918 0.011070959 0.012090647
0.0012242318 0.0007187656 0.0031357615 0.0030324534 0.0008603489 0.0011802068 0.08923295 0.075545885
0.0064701205 0.007130841 0.0077589764 0.006701618 0.0043862155 0.003706515 0.010766117 0.008135183
00000000: df0f e13b c8dd a53b 560e 613a 37ac 213a
00000010: 84e2 173b 87e7 253b 8a96 d63b 5901 923b
00000020: 73bb be3b f043 a03b 6be9 093c a592 b33b
00000030: c822 3c3b 94f2 6d3b f862 353c d917 463c
00000040: 6776 a03a 8b6b 3c3a 5981 4d3b 20bc 463b
00000050: 0a89 613a 2bb1 9a3a c4bf b63d cdb7 9a3d
00000060: 4e03 d43b d4a9 e93b 033f fe3b 3f99 db3b
00000070: 3eba 8f3b 01e9 723b 5e64 303c 6e49 053c

exp_avg f4 [16]
-0.005664596 0.0008251118 0.0029469903 0.0008428679 0.0015066112 0.0015210359 -0.0024809828 0.0039425236
0.00038498573 0.0032159872 -0.0016998873 -0.016808094 0.0016499445 -0.0032884758 0.0034953584 -0.004528289
00000000: 139e b9bb 514c 583a 4b22 413b e8f3 5c3a
00000010: 7c79 c53a 7f5d c73a fc97 22bb 4930 813b
00000020: e9d7 c939 50c3 523b c1ce deba 21b1 89bc
00000030: f342 d83a 7883 57bb 6212 653b 0b62 94bb

exp_avg_sq f4 [16]
0.00029180743 3.0847423e-05 0.00010428234 0.00023010325 0.00022274714 0.000290915 0.00015007753 0.0005018967
3.84769e-05 0.00012323596 5.0355426e-05 0.0036334733 0.00029144814 0.0003182976 0.00018897795 0.00043065162
00000000: bbfd 9839 2b62 0138 28b2 da38 df47 7139
00000010: 3b91 6939 f385 9839 215e 1d39 b891 033a
00000020: 4262 2138 e738 0139 ba34 5338 911f 6e3b
00000030: 82cd 9839 2ee1 a639 6228 4639 15c9 e139

exp_avg f4 [16, 16]
-0.0029374063 0.0010679238 -0.0013680637 -0.0007868296 0.0010606347 -0.000548592 -0.005307641 -0.0016919893
0.00030220294 -0.00037350273 -0.0037104145 -0.0023761615 0.00019390062 -0.0012227804 -0.0039098053 -0.0018931271
-0.0030291986 0.001101487 -0.0014107511 -0.0008110845 0.001094061 -0.0005655232 -0.0054737376 -0.0017450609
0.00031188616 -0.00038510357 -0.003826534 -0.0024503903 0.00020011555 -0.0012607793 -0.00403215 -0.0019521302
0.0 0.0 0.0 0.0 0.0 0.0 0.0 0.0
0.0 0.0 0.0 0.0 0.0 0.0 0.0 0.0
0.0041634757 -0.002317347 0.0015584114 0.0010904297 -0.002415681 0.0008168457 0.008044397 0.0019841283
-0.000860578 4.6871255e-06 0.0055809845 0.003292246 -0.0010878184 0.0011749056 0.0061015813 0.0024291808
0.0031480591 -0.0016317394 0.0013097181 0.0009093677 -0.0016673027 0.00065148744 0.006080758 0.0014520027
-0.00054644555 -4.048015e-07 0.0042127785 0.0025121225 -0.0007034708 0.0010095258 0.004634425 0.001861031
0.0017018017 -0.0008851407 0.00077271287 0.00050349446 -0.00089764653 0.00034825917 0.0034356122 0.00069831824
-0.00028609313 -0.00010927654 0.00237077 0.0013758485 -0.00036200273 0.0005791265 0.0026378178 0.0009553064
0.0028424833 -0.0014769316 0.0011158522 0.0005793336 -0.001568212 0.0003978008 0.0057052867 0.0014316336
-0.00059430697 -0.00014307378 0.003964351 0.002292501 -0.00064576184 0.00092118455 0.004284237 0.0015418489
0.004248762 -0.0021750128 0.0017279898 0.0011524883 -0.002223185 0.00078536046 0.00839661 0.001855388
-0.0007398309 -0.00022364095 0.005819787 0.0034241087 -0.0009832833 0.0014406712 0.0063612526 0.0024075673
6e-45 6e-45 6e-45 6e-45 6e-45 6e-45 6e-45 6e-45
6e-45 6e-45 6e-45 6e-45 0.0 6e-45 6e-45 6e-45
0.0009796136 -0.00048872444 0.0005240563 0.00025972314 -0.00050460926 0.00018342621 0.002017135 0.00040322053
-0.00017161317 -6.0165636e-05 0.0013916261 0.00080535986 -0.00012101655 0.0003774283 0.0015415887 0.0005322229
0.001700859 -0.0010117016 0.00060420623 0.0004469868 -0.0010284269 0.00030046294 0.003387564 0.0009039625
-0.00033597826 1.0410101e-05 0.0023544196 0.0013190164 -0.00056221324 0.00035041332 0.0025892556 0.0009779312
0.0007123997 0.00017425691 0.00019107856 0.00039861858 0.00034027398 0.00021313841 0.0011876905 0.00056434615
0.0002983026 0.00010623478 0.00082628813 0.00057615933 -8.6702275e-05 0.00036116072 0.000983855 0.0005995596
-0.0024780466 0.0009053572 -0.0011596569 -0.00065932807 0.0009008221 -0.00046028587 -0.0044852514 -0.0014267676
0.0002592711 -0.000312519 -0.0031352357 -0.0020047084 0.00016265291 -0.0010287879 -0.0033058892 -0.0015941542
0.0021650686 -0.0013740015 0.0007281104 0.0006000053 -0.0014258728 0.00045080195 0.004152046 0.0009660886
-0.00050367747 2.0124233e-05 0.0028813852 0.0016794642 -0.0007093561 0.00046806192 0.003198483 0.0012822907
0.00036970183 -0.00066065614 -0.00069295603 0.00039525863 -0.00057056575 0.00032488396 -1.7881376e-06 -5.324495e-06
-0.00016260993 8.602276e-05 1.8572762e-05 0.00012058011 -0.0010270482 -0.00038035453 -4.0124e-05 0.0005484459
-0.006269051 0.002275105 -0.0029156986 -0.0016815739 0.0022585 -0.0011720395 -0.011321779 -0.003614719
0.00064182293 -0.0008008572 -0.007914993 -0.0050710253 0.00041344238 -0.0026118208 -0.008338272 -0.0040424834
00000000: 8081 40bb 94f9 8b3a 9a50 b3ba 3e43 4eba
00000010: ff04 8b3a 63cf 0fba b8eb adbb bdc5 ddba
00000020: fe70 9e39 b0d2 c3b9 6d2a 73bb 60b9 1bbb
00000030: cd51 4b39 b445 a0ba d31d 80bb ce22 f8ba
00000040: 8585 46bb c55f 903a f4e8 b8ba f69e 54ba
00000050: 9866 8f3a 9f3f 14ba 0a5d b3bb 87ba e4ba
00000060: a784 a339 bae7 c9b9 96c6 7abb ba96 20bb
00000070: 1cd6 5139 bc40 a5ba 2020 84bb 9fde ffba
00000080: 0000 0000 0000 0000 0000 0000 0000 0000
00000090: 0000 0000 0000 0000 0000 0000 0000 0000
000000a0: 0000 0000 0000 0000 0000 0000 0000 0000
000000b0: 0000 0000 0000 0000 0000 0000 0000 0000
000000c0: c46d 883b a2de 17bb 9c43 cc3a c0ec 8e3a
000000d0: 6750 1ebb 9621 563a a6cc 033c 2608 023b
000000e0: 6998 61ba 1a46 9d36 b1e0 b63b b9c2 573b
000000f0: 2195 8eba 4aff 993a c6ef c73b e432 1f3b
00000100: ab4f 4e3b 17e0 d5ba d9aa ab3a a262 6e3a
00000110: 6589 daba 95c8 2a3a 1841 c73b 2051 be3a
00000120: 573f 0fba 7f53 d9b4 590b 8a3b 6ca2 243b
00000130: 2069 38ba 1152 843a 60dc 973b d7ed f33a
00000140: fd0e df3a c908 68ba e28f 4a3a f1fc 033a
00000150: 0a50 6bba 8e96 b639 0228 613b 580f 373a
00000160: c5fe 95b9 652b e5b8 ec5e 1b3b d155 b43a
00000170: 2fcb bdb9 86d0 173a 3ddf 2c3b 876d 7a3a
00000180: f548 3a3b 9a95 c1ba c941 923a 6bde 173a
00000190: 778c cdba eb8f d039 6af3 ba3b a7a5 bb3a
000001a0: 44cb 1bba 1306 16b9 63e7 813b c93d 163b
000001b0: 5848 29ba a67b 713a c962 8c3b dd17 ca3a
000001c0: 3339 8b3b a98a 0ebb b77d e23a 170f 973a
000001d0: dbb2 11bb a6e0 4d3a ef91 093c 7e30 f33a
000001e0: 36f1 41ba 2981 6ab9 e9b3 be3b 0367 603b
000001f0: 83e1 80ba e7d4 bc3a 0e72 d03b 47c8 1d3b
00000200: 0400 0000 0400 0000 0400 0000 0400 0000
00000210: 0400 0000 0400 0000 0400 0000 0400 0000
00000220: 0400 0000 0400 0000 0400 0000 0400 0000
00000230: 0000 0000 0400 0000 0400 0000 0400 0000
00000240: 6166 803a be1d 00ba d360 093a 732b 8839
00000250: c147 04ba 1956 4039 e931 043b 5867 d339
00000260: 0ff3 33b9 5c5a 7cb8 3967 b63a c91e 533a
00000270: 44ca fdb8 92e1 c539 220f ca3a e084 0b3a
00000280: 5cef de3a 139b 84ba 9863 1e3a 8e59 ea39
00000290: 48cc 86ba 7487 9d39 e501 5e3b e5f7 6c3a
000002a0: 3d26 b0b9 0ba7 2e37 9b4c 1a3b d9e2 ac3a
000002b0: 7e61 13ba aeb7 b739 80b0 293b ed2d 803a
000002c0: 56c0 3a3a bcb8 3639 435c 4839 aefd d039
000002d0: cd66 b239 e87d 5f39 48ac 9b3a a1f0 133a
000002e0: 7f65 9c39 5dca de38 429b 583a 6609 173a
000002f0: eed3 b5b8 2c5a bd39 b2f4 803a c32b 1d3a
00000300: b966 22bb 7e55 6d3a a1ff 97ba c2d6 2cba
00000310: 2625 6c3a 8652 f1b9 04f9 92bb 6002 bbba
00000320: c7ee 8739 97d9 a3b9 8778 4dbb 6d61 03bb
00000330: cf8d 2a39 65d8 86ba 9ea7 58bb f0f2 d0ba
00000340: d3e3 0d3b d717 b4ba a9de 3e3a ad49 1d3a
00000350: 5ae4 baba 9d59 ec39 e30d 883b 1c41 7d3a
00000360: 3909 04ba 76d0 a837 9fd5 3c3b 7821 dc3a
00000370: 15f4 39ba 3566 f539 a49d 513b 8912 a83a
00000380: 8ad4 c139 e22f 2dba 7ea7 35ba b73a cf39
00000390: 0592 15ba 3055 aa39 f1ff efb5 10a9 b2b6
000003a0: 4582 2ab9 1e67 b438 b4cc 9b37 f4df fc38
000003b0: 059e 86ba 526a c7b9 d14a 28b8 95c5 0f3a
000003c0: 9d6c cdbb ee19 153b 4e15 3fbb 4268 dcba
000003d0: 5803 143b 1f9f 99ba fc7e 39bc ece4 6cbb
000003e0: 0240 283a 9ef0 51ba e3ad 01bc d82a a6bb
000003f0: 4cc3 d839 152b 2bbb 3f9d 08bc cf76 84bb

exp_avg_sq f4 [16, 16]
0.0002893991 0.00058418635 0.001540182 0.0007916299 0.0008819521 0.0003326154 0.001247455 0.0013119043
0.0004954883 0.00042089634 0.00051973213 0.00010180578 0.000773091 0.0006572541 0.0011980424 0.00047467256
0.00023062964 0.0006112052 0.0021697448 0.00065174827 0.00084728893 0.0002658223 0.0014773672 0.0011009661
0.00042014816 0.00036328728 0.0005829478 9.9687284e-05 0.0010949811 0.00072485296 0.0016002416 0.00039602732
0.0 0.0 0.0 0.0 0.0 0.0 0.0 0.0
0.0 0.0 0.0 0.0 0.0 0.0 0.0 0.0
0.00053568796 0.0012338447 0.0036329674 0.0016552267 0.0019518401 0.0006796411 0.002587424 0.0025383402
0.0010298939 0.000914639 0.0011025446 0.00022597909 0.0018494856 0.0014334467 0.0026986029 0.0009697743
0.0008668953 0.0015485508 0.0040590367 0.0021196746 0.0021982617 0.0009237212 0.003411097 0.003816798
0.0013073663 0.0011501233 0.0013761603 0.00022523286 0.0020229793 0.0016247588 0.0032185346 0.0013403193
0.00015977281 0.00035750188 0.00091999053 0.00048827048 0.00051646563 0.00021021649 0.0007562525 0.0007730947
0.00030287038 0.00023390086 0.00030777135 5.0037106e-05 0.0004632905 0.0003869478 0.00072564004 0.00026933805
0.00024686215 0.0010046196 0.0010933062 0.0012677293 0.0014340044 0.0005327923 0.000780673 0.0009900981
0.00083204027 0.00040184348 0.0003553061 0.000107751075 0.0007269529 0.0010157853 0.0007659354 0.0005943171
0.00090204336 0.001964481 0.005275192 0.0026114131 0.0030037581 0.0010873226 0.004164936 0.0043574763
0.0016434855 0.0013853714 0.0017524365 0.00030317463 0.0026472234 0.0021855945 0.0040808697 0.001499306
9.560258e-06 1.8285829e-06 3.6782637e-08 1.2934784e-05 3.435666e-06 7.749114e-06 2.4030935e-06 2.2191158e-05
5.2304076e-06 8.590792e-06 1.469884e-06 1.6353296e-06 0.0 1.0796233e-06 4.5803148e-07 1.4580897e-05
4.1208947e-05 7.762417e-05 0.00020535225 0.000109882516 0.00011943605 4.6361958e-05 0.00017021589 0.00018812327
6.749809e-05 6.130791e-05 7.160274e-05 1.4145819e-05 0.0001028297 8.766807e-05 0.00016102729 6.768706e-05
0.00016484164 0.00013967103 0.00058203156 0.0003290503 0.00026599705 0.00014163289 0.0006286419 0.0007742832
0.00018064989 0.00023147515 0.00026422055 4.0598494e-05 0.00020272608 0.0001474893 0.00053611834 0.00023142768
8.920644e-05 9.1615286e-05 0.00010153112 0.00020912202 0.00015132314 9.511718e-05 0.00021208855 0.0003838027
0.00011659207 0.00011489299 8.8677385e-05 1.6598566e-05 2.5170742e-05 8.041261e-05 0.00013862769 0.000136147
0.00018257477 0.00039543913 0.000900218 0.0005805855 0.0006084302 0.0002478357 0.00074940926 0.00078415126
0.00036079265 0.00026793792 0.0003181199 6.868809e-05 0.00044522752 0.00043186566 0.0007111348 0.00032834994
0.00013346021 0.00026657557 0.0007150285 0.0003989893 0.00043959715 0.0001649287 0.0005393607 0.0006058045
0.00024426973 0.00022346863 0.00023616257 5.5259017e-05 0.00035703293 0.00030134647 0.00053859147 0.00024019468
1.49581265e-05 0.00018681954 5.6052635e-05 0.00021757084 0.00026214772 8.83578e-05 4.343197e-06 1.2978408e-07
0.00014995696 8.914676e-06 8.1128456e-07 9.959175e-06 8.8112436e-05 0.00018181263 1.3478131e-05 7.9636295e-05
0.0016456329 0.0029790085 0.0049728192 0.0042473823 0.0046290853 0.0017919015 0.0042303135 0.0063936017
0.0026089847 0.002280459 0.0019159887 0.0005228751 0.0027702514 0.0032844092 0.0037843105 0.0027604916
00000000: 7dba 9739 1524 193a efdf c93a 6285 4f3a
00000010: ce32 673a e262 ae39 a581 a33a 34f4 ab3a
00000020: a8e3 013a c0ab dc39 a23e 083a 9080 d538
00000030: 42a9 4a3a 934b 2c3a a207 9d3a 79dd f839
00000040: 2cd5 7139 4939 203a 4732 0e3b 16da 2a3a
00000050: 991c 5e3a 115e 8b39 38a4 c13a 4b4e 903a
00000060: 5547 dc39 9877 be39 f7d0 183a 340f d138
00000070: 7885 8f3a 0f04 3e3a 33bf d13a e3a1 cf39
00000080: 0000 0000 0000 0000 0000 0000 0000 0000
00000090: 0000 0000 0000 0000 0000 0000 0000 0000
000000a0: 0000 0000 0000 0000 0000 0000 0000 0000
000000b0: 0000 0000 0000 0000 0000 0000 0000 0000
000000c0: 696d 0c3a f5b8 a13a 1417 6e3b 31f4 d83a
000000d0: e3d4 ff3a f129 323a c591 293b 485a 263b
000000e0: 81fd 863a 62c4 6f3a 4283 903a cdf4 6c39
000000f0: 706a f23a 7de2 bb3a 0bdb 303b 7438 7e3a
00000100: 5c40 633a bef8 ca3a ab01 853b 3dea 0a3b
00000110: b610 103b e125 723a b68c 5f3b 3f23 7a3b
00000120: ef5b ab3a bcbf 963a 4760 b43a 7c2c 6c39
00000130: f693 043b dcf5 d43a 0dee 523b a7ad af3a
00000140: b088 2739 176f bb39 852b 713a 8efe ff39
00000150: 6c63 073a 8f6d 5c39 3f3f 463a 82a9 4a3a
00000160: 93ca 9e39 4943 7539 5f5c a139 efde 5138
00000170: cce5 f239 41df ca39 e138 3e3a f135 8d39
00000180: 476d 8139 71ad 833a 454d 8f3a f029 a63a
00000190: 34f5 bb3a 16ab 0b3a 14a6 4c3a 2ec6 813a
000001a0: 471d 5a3a 85ae d239 6148 ba39 6bf8 e138
000001b0: fc90 3e3a 1924 853a 0ec9 483a f2cb 1b3a
000001c0: 1b77 6c3a 86be 003b 85db ac3b 3e24 2b3b
000001d0: b3da 443b 7e84 8e3a 047a 883b 29c9 8e3b
000001e0: 396a d73a 5a95 b53a 03b2 e53a 69f3 9e39
000001f0: 0a7d 2d3b 313c 0f3b d1b8 853b 5c84 c43a
00000200: ff64 2037 a16d f535 f0fa 1d33 7902 5937
00000210: 4b90 6636 3102 0237 d544 2136 2627 ba37
00000220: dc80 af36 2c21 1037 d448 c535 7f7d db35
00000230: 0000 0000 93e7 9035 5ee7 f534 7aa0 7437
00000240: c5d7 2c38 29ca a238 d353 5739 ba70 e638
00000250: be79 fa38 c674 4238 fb7b 3239 f542 4539
00000260: c38d 8d38 6f92 8038 6e29 9638 d453 6d37
00000270: 46a6 d738 70da b738 6fd9 2839 37f3 8d38
00000280: 57d9 2c39 a874 1239 7a93 183a 6284 ac39
00000290: 8575 8b39 4a83 1439 72cb 243a 44f9 4a3a
000002a0: d66c 3d39 23b8 7239 1587 8a39 4d48 2a38
000002b0: de92 5439 5ca7 1a39 4b8a 0c3a 65ab 7239
000002c0: 5814 bb38 9521 c038 1bed d438 c447 5b39
000002d0: 7fac 1e39 a679 c738 1664 5e39 2039 c939
000002e0: e482 f438 b4f2 f038 4ff8 b938 263d 8b37
000002f0: c225 d337 31a3 a838 965c 1139 afc2 0e39
00000300: 8b71 3f39 f152 cf39 9bfc 6b3a 6f32 183a
00000310: 0f7f 1f3a f2ef 8139 0174 443a 808f 4d3a
00000320: c528 bd39 057a 8c39 55c9 a639 a30c 9038
00000330: 6d6d e939 076c e239 736b 3a3a 6226 ac39
00000340: 74f1 0b39 2bc3 8b39 c070 3b3a 702f d139
00000350: bb79 e639 b6f0 2c39 e263 0d3a dace 1e3a
00000360: 5411 8039 e752 6a39 68a2 7739 ebc5 6738
00000370: 2630 bb39 0afe 9d39 4330 0d3a c5dc 7b39
00000380: aaf4 7a37 fde4 4339 0f1a 6b38 ba23 6439
00000390: df70 8939 bc4c b938 c7bb 9136 c75a 0b34
000003a0: c43d 1d39 3e90 1537 0dc7 5935 5516 2737
000003b0: 01c9 b838 f5a4 3e39 2220 6237 6902 a738
000003c0: 47b2 d73a 783b 433b 08f3 a23b a02d 8b3b
000003d0: 95af 973b 3dde ea3a 719e 8a3b 6b81 d13b
000003e0: 80fb 2a3b c173 153b ea21 fb3a 8e11 093a
000003f0: 1b8d 353b 3e3f 573b 3202 783b 5de9 343b

exp_avg f4 [16]
-0.0024900879 -0.0025678992 0.0 0.003499124 0.0026621865 0.0014616125 0.0024449644 0.0036353865
6e-45 0.0008558228 0.0014096539 0.0005962629 -0.0021012323 0.0017887006 0.000114340284 -0.005313861
00000000: be30 23bb 334a 28bb 0000 0000 8f51 653b
00000010: 1478 2e3b 9493 bf3a b23b 203b aa3f 6e3b
00000020: 0400 0000 4c59 603a 23c4 b83a 874e 1c3a
00000030: d4b4 09bb d572 ea3a f9c9 ef38 e61f aebb

exp_avg_sq f4 [16]
0.00022622144 0.0002291126 0.0 0.00038768945 0.0006133641 0.00012612712 0.00019231165 0.0006524153
1.1200572e-06 3.0447804e-05 7.713268e-05 4.1436855e-05 0.00013920147 8.61432e-05 2.402147e-05 0.0009812071
00000000: db35 6d39 f23d 7039 0000 0000 cc42 cb39
00000010: 2bca 203a fe40 0439 44a7 4939 da06 2b3a
00000020: df54 9635 296a ff37 4bc2 a138 7ccc 2d38
00000030: 9cf6 1139 c7a7 b438 b781 c937 d99b 803a

exp_avg f4 [1, 16]
0.013095571 0.013086285 0.0 -0.007121357 -0.0050125285 -0.0025433465 -0.005272457 -0.0058238227
-6e-45 -0.0023271798 -0.0011599425 -5.8967897e-05 0.010909888 -0.0056055314 -0.0022347094 0.011779451
00000000: ce8e 563c dc67 563c 0000 0000 465a e9bb
00000010: 2340 a4bb 46ae 26bb 93c4 acbb c4d5 bebb
00000020: 0400 0080 9983 18bb 3609 98ba 4c54 77b8
00000030: 63bf 323c 9bae b7bb 3474 12bb 99fe 403c

exp_avg_sq f4 [1, 16]
0.005552271 0.005179853 0.0 0.0022083006 0.0062825624 0.005508834 0.002112945 0.0028276101
4.5104513e-05 0.026644839 0.0025544888 0.0034788367 0.0037608088 0.0035044241 0.0009953422 0.002526029
00000000: d3ef b53b c2bb a93b 0000 0000 23b9 103b
00000010: f4dd cd3b 7383 b43b 5679 0a3b 6d4f 393b
00000020: 9a2e 3d38 4746 da3c 3669 273b 32fd 633b
00000030: e777 763b 7baa 653b 2476 823a bc8b 253b
